test/jamendo-peq.ckpt (torch, 704368 bytes, 33 tensors)

proxy.blocks.0.conv1.weight f4 [64, 1, 13]
0.032837525 -0.07133995 -0.10463954 0.1868039 -0.014268922 0.01131366 -0.10879611 -0.074394
0.103715464 0.18595056 -0.079024635 0.7891061 0.23601848 0.05741345 0.112505846 -0.084627494
0.10425503 0.09693994 -0.037878998 0.027945727 0.0142413275 -0.10140258 -0.35691485 0.18653746
-0.055919383 -0.0811401 -0.012315113 0.050024357 -0.002053445 -0.02714599 0.056351244 0.005126845
0.10696499 0.1484845 0.0033629215 -0.2557207 -0.06014554 0.56688315 0.35046753 -0.05186082
-0.03596422 -0.00046924624 0.09246896 0.14763512 0.078858316 0.05972904 0.10853556 0.12357576
0.14913228 0.016819399 -0.21037856 -0.31992868 -0.1708542 0.107873544 0.09561788 -0.09376108
-0.046460316 0.2050107 0.15040012 0.13680951 0.28278938 0.20134787 -0.2003017 -0.22692083
0.044857718 -0.15436561 -0.018868001 0.0052498817 -0.16311793 0.030553373 -0.13503769 -0.23754092
-0.2171665 -0.35799897 -0.35541168 -0.37597224 -0.23321235 -0.12344265 0.115535244 0.0921268
0.057405017 -0.013877402 0.005376819 0.08049441 0.05461712 0.041004613 -0.006499673 0.047406387
0.0641023 -0.034514315 0.09773027 -0.24079338 -0.09287025 -0.06524238 -0.02612442 0.07163657
-0.20280702 -0.12376044 -0.16797714 0.12307059 -0.088920064 -0.05621133 -0.022491924 -0.227202
-0.24821386 -0.22870125 -0.11193011 0.0041766665 -0.060417682 -0.20582335 -0.21829057 -0.25154328
0.005422586 -0.07814547 -0.15635084 -0.33345544 -0.079559654 -0.24412473 -0.21882251 -0.15527809
0.011293395 -0.112017974 -0.19424862 -0.12664269 -0.1742139 -0.062238667 -0.11944276 -0.07855616
-0.20602362 -0.1895659 0.20471726 -0.0016986002 -0.21414836 0.09576856 0.04057366 -0.20630628
-0.29285726 -0.33850673 -0.27132538 -0.30236602 -0.08043273 -0.15810373 0.18504436 -0.033340637
-0.014420943 0.05837573 -0.016617116 0.005719033 0.062242407 -0.11585471 0.0806571 -0.06283523
0.08412178 -0.21940811 0.3298211 -0.26802844 0.06644248 0.014546855 0.1863059 -0.12238636
0.13867146 0.25192422 0.03335318 0.02047206 0.15211312 0.2744387 -0.20898362 0.2683228
0.04026814 -0.244801 -0.21813238 -0.17663491 -0.13557523 -0.1536244 -0.27086854 -0.3278788
-0.31987736 0.050628554 0.06170514 -0.13570672 -0.09959149 0.01449517 -0.009658947 -0.02935645
0.037288263 -0.01756999 -0.005573123 0.03760028 -0.11775348 0.16409926 -0.018324561 -0.25265896
0.20522012 0.050150234 -0.024105215 -0.001772211 0.0048112012 -0.009554472 0.028255418 0.010351658
-0.022060806 -0.03875118 0.009158302 0.07575216 -0.0966187 0.26010343 0.08453929 -0.322687
0.009082264 -0.041102525 0.08967291 0.08930757 -0.1329295 -0.026613705 0.033291753 0.063928135
0.015324235 -0.014431047 -0.025544532 -0.34206143 -0.7622713 0.024303244 -0.0403055 -0.02691117
-0.112223946 0.09220839 0.07911795 0.012469741 -0.050967425 -0.19803432 -0.25718006 -0.009095197
0.22476247 0.7244205 -0.2911743 -0.1909433 -0.116738826 -0.07655722 0.018572992 -0.2177957
-0.117044084 -0.17853035 -0.026023183 -0.08140946 -0.07392866 -0.17751326 -0.32230937 -0.019668538
0.020331845 0.25574797 -0.13969576 -0.24763873 0.12245046 -0.03546767 -0.024425289 -0.058165617
00000000: a480 063d ae1a 92bd 414d d6bd 8649 3f3e
00000010: 32c8 69bc ee5c 393c 7fd0 debd e25b 98bd
00000020: c668 d43d d369 3e3e abd7 a1bd db02 4a3f
00000030: d4ae 713e 5e2a 6b3d 7769 e63d 2e51 adbd
00000040: a983 d53d 7288 c63d 0227 1bbd 70ee e43c
00000050: 7554 693c 28ac cfbd 8bbd b6be ad03 3f3e
00000060: b90b 65bd c82c a6bd 54c5 49bc 57e6 4c3d
00000070: 1793 06bb 4461 debc 90d0 663d 18ff a73b
00000080: 7610 db3d 520c 183e 7664 5c3b d3ed 82be
00000090: 2b5b 76bd 411f 113f 7b70 b33e 036c 54bd
000000a0: 384f 13bd 2a05 f6b9 5e60 bd3d a92d 173e
000000b0: 7880 a13d 70a6 743d e447 de3d 4a15 fd3d
000000c0: 22b6 183e d6c8 893c 7a6d 57be b1cd a3be
000000d0: 67f4 2ebe ceec dc3d 4fd3 c33d cf05 c0bd
000000e0: 2c4d 3ebd 53ee 513e 7d02 1a3e cb17 0c3e
000000f0: c5c9 903e 232e 4e3e e41b 4dbe ef5d 68be
00000100: babc 373d 0512 1ebe 1191 9abc 3307 ac3b
00000110: 6308 27be 114b fa3c 5247 0abe ed3d 73be
00000120: e560 5ebe a44b b7be 85f8 b5be 6f7f c0be
00000130: 38cf 6ebe 80cf fcbd be9d ec3d faac bc3d
00000140: 8621 6b3d 0b5e 63bc 0730 b03b 41da a43d
00000150: 34b6 5f3d 74f4 273d 35fb d4bb 332d 423d
00000160: 1148 833d e25e 0dbd cf26 c83d 8a92 76be
00000170: c232 bebd cc9d 85bd e102 d6bc 32b6 923d
00000180: a5ac 4fbe 1d76 fdbd 3302 2cbe 6f0c fc3d
00000190: b91b b6bd da3d 66bd fc40 b8bc a4a7 68be
000001a0: c62b 7ebe a930 6abe 9d3b e5bd 6bdc 883b
000001b0: 8878 77bd 5bc3 52be 9087 5fbe 48ca 80be
000001c0: f3af b13b bb0a a0bd 6f1a 20be acba aabe
000001d0: 2cf0 a2bd d5fb 79be 0213 60be 3801 1fbe
000001e0: ef07 393c ae69 e5bd 1ce9 46be 9fae 01be
000001f0: 2165 32be f9ed 7ebd 689e f4bd 0de2 a0bd
00000200: dbf7 52be 901d 42be 67a1 513e 91a3 deba
00000210: b549 5bbe 4f22 c43d 9130 263d f441 53be
00000220: 63f1 95be c150 adbe 29eb 8abe b8cf 9abe
00000230: eab9 a4bd f2e5 21be 457c 3d3e 3190 08bd
00000240: d245 6cbc 641b 6f3d 9e20 88bc ba66 bb3b
00000250: e5f1 7e3d 3c45 edbd 8d2f a53d c2af 80bd
00000260: 0a48 ac3d 85ac 60be 50de a83e 063b 89be
00000270: ff12 883d ef55 6e3c f9c6 3e3e b3a5 fabd
00000280: e4ff 0d3e 36fc 803e 589d 083d 06b5 a73c
00000290: 8bc3 1b3e 3b83 8c3e cdff 55be 9b61 893e
000002a0: 35f0 243d 1dad 7abe 185e 5fbe c8df 34be
000002b0: 3cd4 0abe b74f 1dbe 48af 8abe bbdf a7be
000002c0: f7c6 a3be e35f 4f3d 87be 7c3d b4f6 0abe
000002d0: a0f6 cbbd 267d 6d3c 8f40 1ebc f07c f0bc
000002e0: 94bb 183d f1ee 8fbc bf9e b6bb c002 1a3d
000002f0: bd28 f1bd a309 283e 641d 96bc 845c 81be
00000300: 3925 523e 556a 4d3d 4d78 c5bc 8949 e8ba
00000310: 48a7 9d3b 5c8a 1cbc e877 e73c 009a 293c
00000320: ddb8 b4bc 8fb9 1ebd b40c 163c f323 9b3d
00000330: 06e0 c5bd 472c 853e ef22 ad3d 3b37 a5be
00000340: c7cd 143c 1f5b 28bd 6ea6 b73d e3e6 b63d
00000350: ac1e 08be fc04 dabc ef5c 083d c1ec 823d
00000360: 8012 7b3c 3370 6cbc c442 d1bc ad22 afbe
00000370: 3624 43bf 9917 c73c 6117 25bd d074 dcbc
00000380: abd5 e5bd c1d7 bc3d 9708 a23d e24d 4c3c
00000390: 38c3 50bd 82c9 4abe 1bad 83be 0504 15bc
000003a0: 2228 663e 9f73 393f cc14 95be a486 43be
000003b0: c414 efbd 08ca 9cbd 6326 983c d605 5fbe
000003c0: cfb4 efbd a9d0 36be 922e d5bc 01ba a6bd
000003d0: e967 97bd 09c6 35be bc05 a5be ea1f a1bc
000003e0: f88e a63c 66f1 823e 680c 0fbe 0295 7dbe
000003f0: 4fc7 fa3d 8c46 11bd 8b17 c8bc 123f 6ebd

proxy.blocks.0.conv1.bias f4 [64]
-0.16391672 -0.8486398 -1.1023996 0.7412485 -0.5062085 0.023839006 0.96791965 -0.9056226
0.015270234 -0.43501297 -0.5358157 -1.7025741 -0.16710484 -0.074283816 0.15271394 -1.2112666
0.31258446 1.7851188 0.005761831 -0.011834867 -0.05118509 0.3654609 -0.28378263 0.8648153
0.08317698 0.321863 0.22735342 0.3384535 0.8892455 -0.22182353 0.67795885 -0.157091
-0.21924798 0.94973636 1.003935 0.8568833 0.0032768664 -0.9691196 -0.63755995 0.14890067
0.009269946 0.27325916 0.0065447097 -0.02519125 0.31604186 0.56020063 1.0317315 -0.7370462
0.43042096 0.5860163 0.74704677 0.18202826 0.28398654 0.3457042 0.31919584 -1.4942843
-0.84415257 0.74959064 0.04174874 0.044994473 -0.24425042 0.18753867 0.5957213 0.7429205
00000000: c9d9 27be 7540 59bf 6e1b 8dbf 76c2 3d3f
00000010: e196 01bf 054a c33c 95c9 773f e2d6 67bf
00000020: 0130 7a3c 05ba debe 382b 09bf f3ed d9bf
00000030: 881d 2bbe 1d22 98bd 0b61 1c3e c90a 9bbf
00000040: 120b a03e c67e e43f becd bc3b 08e7 41bc
00000050: 75a7 51bd b11d bb3e f54b 91be 8964 5d3f
00000060: b158 aa3d 3acb a43e 56cf 683e c749 ad3e
00000070: 98a5 633f b525 63be b68e 2d3f 77dc 20be
00000080: 8b82 60be ec21 733f f180 803f b45c 5b3f
00000090: b2c0 563b 3918 78bf 2137 23bf 6b79 183e
000000a0: f9e0 173c a0e8 8b3e 0175 d63b e15d cebc
000000b0: 3dd0 a13e 4f69 0f3f c70f 843f 0faf 3cbf
000000c0: 2360 dc3e 2a05 163f 753e 3f3f 9e65 3a3e
000000d0: af66 913e 2400 b13e a36d a33e b544 bfbf
000000e0: 621a 58bf 2ce5 3f3f ba00 2b3d 204c 383d
000000f0: c81c 7abe 230a 403e 3181 183f 0a30 3e3f

proxy.blocks.0.film.bn.running_mean f4 [64]
-0.16378248 -0.84865403 -1.1022851 0.74126756 -0.5061487 0.023552526 0.96799296 -0.90575945
0.015029658 -0.43524194 -0.5359798 -1.7025869 -0.16696805 -0.0745234 0.15271625 -1.2112685
0.31245613 1.7851748 0.0055349106 -0.011953678 -0.05093132 0.36523807 -0.28408414 0.8648604
0.08343263 0.3216662 0.227105 0.3387069 0.88909024 -0.22162122 0.6777954 -0.15726717
-0.21945915 0.949745 1.003967 0.8568593 0.0033804083 -0.96898234 -0.63735217 0.14861672
0.009460779 0.27348137 0.0066493377 -0.025372902 0.31625876 0.56013197 1.0317435 -0.7371586
0.43018326 0.58584976 0.7472645 0.1822378 0.28383467 0.34595823 0.3188906 -1.4942861
-0.84426636 0.7495899 0.041489877 0.044794105 -0.24411686 0.18727924 0.595933 0.74309206
00000000: 98b6 27be 6441 59bf ae17 8dbf b6c3 3d3f
00000010: f692 01bf 3af1 c03c 63ce 773f dadf 67bf
00000020: f43e 763c 08d8 debe f935 09bf 5eee d9bf
00000030: acf9 2abe b99f 98bd a661 1c3e d90a 9bbf
00000040: 40fa 9f3e 9c80 e43f 325e b53b 5cd9 43bc
00000050: 5c9d 50bd 7c00 bb3e 7a73 91be 7e67 5d3f
00000060: bade aa3d 6fb1 a43e 378e 683e fe6a ad3e
00000070: 6b9b 633f acf0 62be 0084 2d3f a50a 21be
00000080: e6b9 60be 7d22 733f fe81 803f 225b 5b3f
00000090: d789 5d3b 3a0f 78bf 8329 23bf fb2e 183e
000000a0: 6201 1b3c c005 8c3e b0e2 d93b d5da cfbc
000000b0: abec a13e cf64 0f3f 2c10 843f 6db6 3cbf
000000c0: fb40 dc3e 40fa 153f ba4c 3f3f 8c9c 3a3e
000000d0: c752 913e 7021 b13e a145 a33e c444 bfbf
000000e0: d721 58bf 20e5 3f3f 4af1 293d 067a 373d
000000f0: c5f9 79be 21c6 3f3e 118f 183f 483b 3e3f

proxy.blocks.0.film.bn.running_var f4 [64]
0.0014167934 7.5350035e-05 0.0009363782 0.0001544335 0.00034678244 0.0056259423 0.0003481463 0.0011976367
0.0037510432 0.003378378 0.0021251831 1.7066193e-05 0.0012524063 0.0039363718 6.214495e-06 1.5095873e-05
0.0013361955 0.0003901709 0.0032676784 0.0010849361 0.00408677 0.003581556 0.0061976854 0.00048576973
0.0042473422 0.0024499919 0.004145236 0.004474312 0.0017196429 0.00296511 0.0017418527 0.0020367317
0.0028516764 5.17901e-06 0.00016327128 3.7820148e-05 0.00071389053 0.0013725098 0.002948908 0.005412575
0.0023648813 0.0036134946 0.0007049459 0.0030045877 0.0031162703 0.0005162788 0.00021259472 0.00097184826
0.00371515 0.0019630436 0.0032052677 0.003182854 0.0017177039 0.004154897 0.0062405085 1.00045345e-05
0.0010588869 3.5610942e-06 0.0042799455 0.0025582793 0.0011848824 0.00436919 0.003013745 0.0021232234
00000000: b3b3 b93a 3e05 9e38 4777 753a 6def 2139
00000010: 5ad0 b539 d359 b83b 6887 b639 05fa 9c3a
00000020: 10d4 753b c767 5d3b a846 0b3b 5f29 8f37
00000030: c827 a43a aefc 803b 1b86 d036 4844 7d37
00000040: 4823 af3a da8f cc39 8c26 563b 6a34 8e3a
00000050: 50ea 853b 8ab8 6a3b f415 cb3b e9ae fe39
00000060: 4a2d 8b3b 0b90 203b c3d4 873b 409d 923b
00000070: a465 e13a 4a52 423b e14e e43a b07a 053b
00000080: 31e3 3a3b 5bc7 ad36 cd33 2b39 13a1 1e38
00000090: 6224 3b3a c9e5 b33a 7742 413b f85b b13b
000000a0: 20fc 1a3b 61d0 6c3b 1ecc 383a 9ee8 443b
000000b0: 573a 4c3b e256 073a f6eb 5e39 a2c3 7e3a
000000c0: e079 733b 68a6 003b 780f 523b 6e97 503b
000000d0: 9424 e13a cd25 883b 2e7d cc3b 26d9 2737
000000e0: 59ca 8a3a 22fb 6e36 c93e 8c3b cea8 273b
000000f0: 0e4e 9b3a 6c2b 8f3b 4082 453b c725 0b3b

proxy.blocks.0.film.adaptor.weight f4 [128, 18]
-0.07993469 -0.24131401 -0.057639208 -0.001959119 0.14828739 0.12770115 0.14719538 0.0026770236
0.042988893 0.050829906 -0.111517325 0.023915218 -0.032818764 -0.08396538 -0.13209103 0.1437957
0.16900918 0.07417158 0.101179525 -0.044661943 -0.022426652 0.01359848 -0.022882206 -0.091487706
-0.19117549 -0.026433613 -0.017434156 -0.082568794 0.058213618 -0.0047844243 -0.06349475 0.0073789256
0.005455382 0.039347313 0.21883269 -0.02868788 -0.16227947 -0.13089916 0.025122803 -0.028656224
-0.045903634 0.07193006 0.040997174 -0.0275953 -0.066260256 0.04406451 -0.025918933 0.0072809723
-0.083371386 0.08908506 -0.049778607 -0.09739384 -0.088047154 0.083340995 -0.12981012 -0.13641228
0.009610411 0.07923353 0.33034155 -0.26948982 -0.21544403 -0.04070404 0.0570292 0.046114005
-0.061386574 -0.053622056 -0.05255354 -0.032183897 -0.042653996 -0.0028101355 0.019146109 -0.007755501
0.24478264 -0.15127142 0.035011124 0.11212782 0.1433817 -0.03755212 0.15423165 0.032018397
-0.0061794855 0.085033566 0.092745766 0.06286375 0.010955567 -0.033899486 0.059360426 0.089122646
-0.23695189 0.017846508 -0.3050746 0.074967936 0.10301049 -0.0699849 -0.032319926 0.07973309
-0.0502473 -0.12951069 0.07344453 -0.07742686 -0.010307671 0.024837827 -0.0030953905 -0.12667413
0.049736485 -0.06663619 -0.10381302 0.037993442 -0.29103276 -0.14132388 -0.057711367 0.006260038
-0.050747354 -0.023290247 0.07190127 -0.07383032 -0.061587993 -0.019573212 0.00957258 0.071163595
-0.06807138 0.07495084 0.055252798 0.11379466 -0.07515171 -0.05491116 -0.3979629 -0.14010704
0.07706351 -0.044217996 0.038564324 -0.053984176 -0.002221377 -0.06673573 -0.0028088423 -0.041272014
-0.014197931 -0.10233262 -0.01364083 0.10373285 0.054296143 -0.078827806 -0.004137096 -0.014333783
-0.42616156 0.33140382 0.022777887 0.053018562 -0.08231203 -0.07015343 0.039741524 0.049524773
0.029374128 -0.065598555 0.13559516 -0.0023747939 -0.058230713 -0.060739342 0.13232179 0.008527251
-0.0059864153 -0.073261894 0.010344033 -0.364931 -0.21649301 0.03132267 0.09457483 0.12707062
-0.04544386 -0.006910937 -0.07642143 0.06889968 0.071889125 0.101777904 0.07778058 0.008318253
-0.010864661 0.04098136 -0.039045107 0.097950116 -0.07784885 -0.04235078 -0.12281199 -0.10483684
-0.14076054 -0.047264755 -0.15866123 -0.15331663 -0.048955202 0.08182153 0.12958658 0.04450598
-0.05460857 -0.06577561 0.034417663 0.10658605 -0.18161899 0.075325236 0.0163599 -0.015510579
-0.032137737 -0.0044432194 -0.017214252 -0.008465018 -0.041198466 -0.017753942 -0.01479216 -0.0310783
-0.020939222 0.008144092 -0.07232249 0.0023708835 -0.0005448732 0.42636523 0.17385077 -0.04349802
-0.27302447 0.36151078 -0.05909555 0.038880378 -0.05815168 0.11055133 0.088686146 0.03253717
-0.089041986 -0.1406978 -0.03583363 -0.10848726 0.10760509 -0.14468284 0.052990627 0.21249513
0.060021855 0.029148234 -0.3976927 0.42593685 0.052301917 -0.16596264 0.21886918 -0.01752988
0.027209911 0.19910568 -0.08754473 -0.074509285 0.067794956 0.021876365 0.10143887 -0.06847148
0.017453011 -0.026258526 -0.07413731 -0.15412013 0.045336813 -0.0076837935 -0.0027664178 0.024041146
00000000: ccb4 a3bd 051b 77be 1717 6cbd 9064 00bb
00000010: a6d8 173e 17c4 023e 63ba 163e 0171 2f3b
00000020: 1f15 303d 0533 503d 3263 e4bd d9e9 c33c
00000030: f86c 06bd 0bf6 abbd df42 07be 2e3f 133e
00000040: be10 2d3e 45e7 973d 3637 cf3d 71ef 36bd
00000050: 19b8 b7bc 29cc 5e3c 7773 bbbc e85d bbbd
00000060: 82c3 43be 4e8b d8bc 13d2 8ebc d419 a9bd
00000070: 6771 6e3d a9c6 9cbb 8909 82bd eaca f13b
00000080: 10c3 b23b a62a 213d ad15 603e d802 ebbc
00000090: 972c 26be 6e0a 06be 56ce cd3c 75c0 eabc
000000a0: 7305 3cbd 1150 933d a7ec 273d 8a0f e2bc
000000b0: 75b3 87bd fd7c 343d f153 d4bc 3995 ee3b
000000c0: 9ebe aabd 3a72 b63d a7e4 4bbd 6c76 c7bd
000000d0: 1152 b4bd afae aa3d f2ec 04be a9af 0bbe
000000e0: fc74 1d3c 3045 a23d 8722 a93e 92fa 89be
000000f0: 5c9d 5cbe 48b9 26bd 7397 693d 0ae2 3c3d
00000100: 7d70 7bbd cda2 5bbd 6142 57bd 43d3 03bd
00000110: f5b5 2ebd 402a 38bb 4dd8 9c3c dc21 febb
00000120: 4da8 7a3e e5e6 1abe d367 0f3d 45a3 e53d
00000130: a7d2 123e 40d0 19bd e7ee 1d3e b925 033d
00000140: 487d cabb 1426 ae3d 7ef1 bd3d b6be 803d
00000150: fa7e 333c 30da 0abd eb23 733d ef85 b63d
00000160: 84a3 72be d732 923c bd32 9cbe ca88 993d
00000170: 2af7 d23d 3e54 8fbd e661 04bd 1a4b a33d
00000180: 1dd0 4dbd 739e 04be 166a 963d f991 9ebd
00000190: 81e1 28bc b378 cb3c 09dc 4abb ddb6 01be
000001a0: 7cb8 4b3d 8e78 88bd ec9b d4bd 039f 1b3d
000001b0: 3f02 95be 35b7 10be c162 6cbd 0121 cd3b
000001c0: 75dc 4fbd 30cb bebc f940 933d 5a34 97bd
000001d0: b143 7cbd 0058 a0bc 50d6 1c3c 38be 913d
000001e0: 0269 8bbd d37f 993d c250 623d 2d0d e93d
000001f0: 24e9 99bd 86ea 60bd cbc1 cbbe 3878 0fbe
00000200: 79d3 9d3d ee1d 35bd a0f5 1d3d 831e 5dbd
00000210: 8694 11bb beac 88bd 8e14 38bb d80c 29bd
00000220: 709e 68bc c493 d1bd ca7d 5fbc e371 d43d
00000230: a265 5e3d 7970 a1bd 7a90 87bb 3ed8 6abc
00000240: d931 dabe c3ad a93e b198 ba3c fe29 593d
00000250: 3693 a8bd 9aac 8fbd 02c8 223d 7dda 4a3d
00000260: 03a2 f03c 8958 86bd 75d9 0a3e 6ea2 1bbb
00000270: 5483 6ebd d1c9 78bd 5d7f 073e e2b5 0b3c
00000280: b129 c4bb 550a 96bd 057a 293c 3cd8 babe
00000290: 58b0 5dbe 334c 003d 73b0 c13d cd1e 023e
000002a0: 5723 3abd 2475 e2bb d782 9cbd 471b 8d3d
000002b0: 9b3a 933d ef70 d03d 6d4b 9f3d 4849 083c
000002c0: b101 32bc 12dc 273d c3ed 1fbd 129a c83d
000002d0: 386f 9fbd 0378 2dbd da84 fbbd b2b4 d6bd
000002e0: 8823 10be b098 41bd 1778 22be 09ff 1cbe
000002f0: 4085 48bd 0c92 a73d 58b2 043e e74b 363d
00000300: 3cad 5fbd 5db5 86bd 89f9 0c3d c949 da3d
00000310: 54fa 39be 1e44 9a3d 3205 863c 1520 7ebc
00000320: dca2 03bd 6d98 91bb e704 8dbc dcb0 0abc
00000330: b9bf 28bd b770 91bc d15a 72bc eb97 febc
00000340: bb88 abbc cc6e 053c d01d 94bd d360 1b3b
00000350: d2d5 0eba 8b4c da3e f005 323e fb2a 32bd
00000360: ddc9 8bbe f117 b93e 2d0e 72bd 0841 1f3d
00000370: 7530 6ebd bc68 e23d 15a1 b53d b245 053d
00000380: a55b b6bd 1613 10be 49c6 12bd 922e debd
00000390: 0f60 dc3d bd27 14be b30c 593d 5398 593e
000003a0: 7ad9 753d 47c8 ee3c 619e cbbe 6514 da3e
000003b0: 893a 563d 1cf2 29be 3e1f 603e d39a 8fbc
000003c0: 52e7 de3c 5ce2 4b3e a74a b3bd 5398 98bd
000003d0: 15d8 8a3d 1036 b33c 2fbf cf3d c63a 8cbd
000003e0: 9ef9 8e3c 1f1c d7bc 4dd5 97bd abd1 1dbe
000003f0: 18b3 393d 55c8 fbbb ca4c 35bb f0f1 c43c

proxy.blocks.0.film.adaptor.bias f4 [128]
-0.19298731 0.04154349 0.2974247 0.20430112 -0.2896993 0.30250734 0.24636157 0.3096866
0.18355072 -0.11790711 0.2833847 0.08560382 -0.10803317 0.042700335 0.13956907 0.28648826
0.17775005 0.17969039 -0.05104443 -0.09597266 -0.060862064 0.19862133 0.042683147 -0.2819666
0.023071313 -0.11933092 -0.26889277 0.15874921 -0.01760735 0.08905323 -0.10050289 -0.09621388
0.037283007 0.20643942 -0.120890126 0.16171314 0.13890746 0.08181159 -0.16982278 -0.062169924
-0.23821816 0.031022517 -0.0542789 0.023727026 0.26867425 0.04548486 -0.16132918 -0.28755194
0.31501597 0.14678939 0.11350848 -0.14891274 -0.0067383246 0.06842469 -0.3300621 0.014634906
0.040039103 0.14876959 -0.11398713 -0.111171104 0.09560917 0.049894746 0.33746937 -0.27973482
-0.56370693 -0.12466497 0.18854092 0.10936494 0.2622277 0.24242659 -0.26908126 -0.0020886548
0.09863891 -0.15178344 -0.738775 -2.4655519 -0.59125865 0.3241798 -2.3120408 -0.9775216
-0.7846601 -0.051282834 0.14032432 -0.67618734 -0.042637426 0.22773428 0.15830934 0.40912825
0.22869383 -0.025015129 0.04064176 -0.07372895 0.069903426 0.22141795 -0.04518699 0.07354964
-0.051012486 0.039586034 -0.98662454 -0.16800919 -0.49644235 -0.13715512 0.11633887 -0.038838547
-0.21443312 0.13257086 -0.6354434 -0.39400876 0.063438654 0.5258789 -0.31689644 -0.018042957
0.28186852 -0.5629834 -0.19637413 -0.47219616 -0.5269042 -0.04432063 0.032108556 0.07862967
0.18149428 -0.15483172 -0.18326262 0.06090103 -0.053790826 -0.15660524 0.038034923 -0.11322566
00000000: 779e 45be 8229 2a3d 0d48 983e 5034 513e
00000010: 7753 94be 3ee2 9a3e 3546 7c3e 3e8f 9e3e
00000020: b8f4 3b3e 4879 f1bd cd17 913e 0e51 af3d
00000030: 7f40 ddbd 8ce6 2e3d 32eb 0e3e 97ae 923e
00000040: 1c04 363e c200 383e f713 51bd 508d c4bd
00000050: 804a 79bd 6463 4b3e 86d4 2e3d ed5d 90be
00000060: 0d00 bd3c c563 f4bd 50ac 89be 278f 223e
00000070: 4a3d 90bc 8a61 b63d 76d4 cdbd c80b c5bd
00000080: 11b6 183d db64 533e 3e95 f7bd 2198 253e
00000090: c23d 0e3e d68c a73d 06e6 2dbe e4a5 7ebd
000000a0: 76ef 73be ef22 fe3c 8d53 5ebd 2e5f c23c
000000b0: ac8f 893e 554e 3a3d 7a33 25be 023a 93be
000000c0: c649 a13e f54f 163e 2277 e83d 957c 18be
000000d0: 2acd dcbb 3e22 8c3d e6fd a8be 3fc7 6f3c
000000e0: 0b00 243d 0e57 183e 1672 e9bd adad e3bd
000000f0: bece c33d 6f5e 4c3d c9c8 ac3e 6739 8fbe
00000100: 194f 10bf 5950 ffbd df10 413e bafa df3d
00000110: b642 863e ad3e 783e 05c5 89be d0e1 08bb
00000120: 3203 ca3d 1e6d 1bbe 5c20 3dbf 9acb 1dc0
00000130: ba5c 17bf e5fa a53e 7af8 13c0 db3e 7abf
00000140: 7cdf 48bf f30d 52bd 2eb1 0f3e 9d1a 2dbf
00000150: 95a4 2ebd 2d33 693e d81b 223e 4279 d13e
00000160: b72e 6a3e 87ec ccbc f977 263d 34ff 96bd
00000170: 8729 8f3d 63bb 623e fe15 39bd 32a1 963d
00000180: 78f2 50bd f724 223d 6d93 7cbf 9a0a 2cbe
00000190: b12d febe 6472 0cbe 1343 ee3d 2b15 1fbd
000001a0: 5b94 5bbe a8c0 073e 6bac 22bf 84bb c9be
000001b0: 20ec 813d 00a0 063f 4040 a2be d3ce 93bc
000001c0: 1251 903e ae1f 10bf 4d16 49be b2c3 f1be
000001d0: 32e3 06bf 8d89 35bd 4384 033d 9808 a13d
000001e0: a3d9 393e 358c 1ebe 32a9 3bbe 5c73 793d
000001f0: c553 5cbd 205d 20be 82ca 1b3d dbe2 e7bd

proxy.blocks.0.relu.weight f4 [64]
0.35573038 0.9843648 0.9546026 0.9717235 0.87105054 0.6254046 0.45897454 0.18160166
0.49156177 0.14018042 0.2824925 0.40360633 0.36125037 0.73436576 0.6330995 0.8740969
0.26064983 0.98602784 0.30766332 0.21662067 0.40085107 0.9698508 0.9011895 1.0002347
0.087792434 0.04603407 0.8334011 0.49748862 0.94512755 0.65351325 0.56352496 0.6701622
0.63876677 0.46119145 0.38791355 0.5987972 0.14735866 0.90910697 0.86650306 0.6487455
0.2948036 0.554623 0.29594386 0.21938938 0.52890915 0.9817026 0.8826117 0.9172664
0.7062753 0.20928074 0.40239292 0.39131463 0.2141475 0.41237032 0.41307908 0.9932438
0.9429585 0.9712925 0.36039883 -0.110916734 0.7133061 0.28127876 0.91342396 0.8604511
00000000: 4b22 b63e 55ff 7b3f d660 743f dfc2 783f
00000010: 2bfd 5e3f 841a 203f b6fe ea3e c9f5 393e
00000020: fcad fb3e 758b 0f3e dba2 903e 7da5 ce3e
00000030: cff5 b83e 65ff 3b3f cf12 223f d0c4 5f3f
00000040: e573 853e 526c 7c3f 0c86 9d3e cfd1 5d3e
00000050: 5a3c cd3e 2448 783f 5bb4 663f b107 803f
00000060: 85cc b33d 398e 3c3d c659 553f d4b6 fe3e
00000070: e1f3 713f a54c 273f 2c43 103f c08f 2b3f
00000080: 3886 233f 4921 ec3e 9b9c c63e c64a 193f
00000090: 30e5 163e 3cbb 683f 25d3 5d3f 2f14 263f
000000a0: 7ff0 963e c6fb 0d3f f485 973e 9ca7 603e
000000b0: 9766 073f dd50 7b3f d7f2 613f f9d1 6a3f
000000c0: 75ce 343f b14d 563e 7206 ce3e 645a c83e
000000d0: 7b49 5b3e 3422 d33e 1a7f d33e 3a45 7e3f
000000e0: ba65 713f a0a6 783f 3286 b83e 5028 e3bd
000000f0: 3b9b 363f c503 903e 27d6 693f 8646 5c3f

proxy.blocks.0.res.weight f4 [64, 1, 1]
1.2793994 -1.2284814 0.85330856 -0.97604007 -0.1943625 -0.2873001 -0.88706857 0.631853
0.85016406 -0.65042937 -0.6072549 -0.020235103 -0.24243444 0.3690264 0.865086 -0.76777095
-0.84941864 0.8694721 -0.17035438 -1.1207497 -0.82617134 -0.7166577 0.73475665 0.31410632
0.4392568 0.15470187 -0.88780504 0.869107 0.383233 -0.43211538 0.29183227 -0.2183319
0.051993527 -1.1396234 1.0983145 0.6763823 -1.2456543 0.6808637 -0.5558541 -0.59526676
1.1311876 0.19987404 0.8029507 -0.86446995 -0.65976804 -0.7900393 -0.1379327 -0.37037528
-0.3549436 1.2084717 0.47387937 -0.24340588 0.70072186 -0.90099466 0.07979321 1.4743645
-1.5806516 -0.38751623 -0.36719254 -0.2181979 -1.018695 -0.3446717 -0.31487116 0.11141037
00000000: 5cc3 a33f e13e 9dbf 6e72 5a3f c3dd 79bf
00000010: f706 47be 0019 93be ed16 63bf 1ec1 213f
00000020: 5aa4 593f 8a82 26bf 0f75 1bbf 16c4 a5bc
00000030: bc40 78be 07f1 bc3e 4776 5d3f a38c 44bf
00000040: 8073 59bf b995 5e3f 6171 2ebe ba74 8fbf
00000050: f77f 53bf e176 37bf 0319 3c3f 8bd2 a03e
00000060: 44e6 e03e 2b6a 1e3e 3147 63bf cc7d 5e3f
00000070: 1e37 c43e 3a3e ddbe 0a6b 953e 6692 5fbe
00000080: 2af7 543d 2edf 91bf 9295 8c3f 6427 2d3f
00000090: 9a71 9fbf 154d 2e3f 744c 0ebf 6763 18bf
000000a0: c1ca 903f c8ab 4c3e 2d8e 4d3f e74d 5dbf
000000b0: 8fe6 28bf 0440 4abf 3b3e 0dbe d4a1 bdbe
000000c0: 2bbb b5be 33af 9a3f 51a0 f23e 643f 79be
000000d0: 8262 333f 96a7 66bf 9f6a a33d fab7 bc3f
000000e0: cb52 cabf 8768 c6be a900 bcbe 456f 5fbe
000000f0: 9964 82bf cf78 b0be cb36 a1be 1f2b e43d

proxy.blocks.1.conv1.weight f4 [64, 64, 13]
0.00083066616 0.03110986 0.04345139 0.0707984 0.045618042 0.06454592 0.07371226 0.076683775
0.053146224 0.03950691 0.053139236 0.005061523 0.037180446 0.009014767 -0.01597873 -0.020708509
-0.029342303 -0.03137952 -0.02583513 -0.028323572 -0.037348643 -0.04921209 -0.040320303 -0.016434226
-0.013293053 0.0096627595 -0.15872777 -0.15741648 -0.13185647 -0.13746408 -0.12716483 -0.13172634
-0.101958886 -0.12085166 -0.08028236 -0.088443786 -0.051526345 -0.095263705 -0.05469937 -0.03114617
-0.04399837 -0.049563147 -0.069363795 -0.091225855 -0.09546149 -0.10490198 -0.10282741 -0.100931816
-0.09615925 -0.08588511 -0.05884549 -0.028260179 0.009340419 0.028425733 0.025984505 0.024724297
0.033059917 0.039126422 0.051253878 0.047366563 0.06390592 0.055222876 0.047339797 0.047251567
0.046538718 0.10393887 0.08691773 0.09409843 0.09751532 0.099638656 0.11201204 0.11013593
0.10442362 0.05506545 0.034555417 0.03248227 0.037399027 0.048964784 -0.05372751 -0.067567766
-0.10060547 -0.09328463 -0.06288611 -0.089726515 -0.11462892 -0.0847005 -0.10230504 -0.07705912
-0.02753438 -0.041784856 -0.0065751933 0.013124556 0.050665468 0.061825257 0.06848229 0.08100519
0.06485915 0.04358404 0.03822464 0.024041047 0.043898754 -0.010366907 0.011580828 -0.032412354
0.11736207 0.09385412 0.08958933 0.1300289 0.08143953 0.096936285 0.076462425 0.10114869
0.045465305 0.061258335 0.0494947 -0.0035552613 0.063345075 0.0056101205 -0.023250088 0.00010634538
-0.018876683 0.013289678 0.013991466 -0.029937418 -0.05243997 -0.08562125 -0.06533801 -0.052806936
-0.047626346 -0.0033118525 0.007930267 0.030661821 0.028611124 0.015865222 0.058772817 0.052563798
0.03035642 0.007958155 0.0052391286 0.004130668 0.02170894 0.046059538 0.09633925 0.034391005
0.0346627 0.029145667 0.02638077 0.023082774 0.009991935 -0.00080475 -0.006141284 -0.011736818
-0.015365769 -0.010437194 0.011291703 -0.015595179 -0.01984264 0.022625657 0.036969163 0.01946964
-0.0014867616 0.009625213 -0.0035437131 0.031168371 0.020968644 0.018732687 0.0138543425 -0.013627334
0.040180426 0.051661327 0.033741154 0.034541678 0.0010068708 0.012130949 0.004111838 0.030779295
0.039081223 0.03873007 0.017869731 0.0087089045 0.050495237 0.008771703 0.0017490227 0.0035581598
0.004432065 0.00050390774 0.0032087686 0.0041463026 0.0034250966 0.0042564995 0.0022717798 0.0013315448
-0.0038061037 0.00868267 0.0047724126 -0.010414562 -0.008130855 -0.008430388 -0.008547893 -0.028873375
-0.018703053 -0.020643443 -0.015466947 -0.01500924 -0.016710943 -0.0110984715 -0.004441734 -0.0026760292
0.01794509 -0.030473469 0.0035118316 -0.021359485 -0.016163506 -0.04486757 -0.019451626 -0.0065447446
-0.01880294 -0.022131797 0.000820138 -0.045474324 0.0056879334 0.006835919 0.011086987 0.012571894
0.026725227 0.027435191 0.027621483 0.036171142 0.025785549 0.028578455 0.019777903 0.02606633
0.0156216035 0.024856996 0.08299339 0.07601935 0.07907335 0.11387479 0.10068123 0.06902418
0.07837976 0.05286035 0.07187721 0.03527839 0.05655332 0.037031975 0.017336903 -0.03698283
-0.08450082 -0.10268726 -0.18039137 -0.14229879 -0.1716409 -0.15735924 -0.17653058 -0.12696743
00000000: 10c1 593a 1bda fe3c 16fa 313d c0fe 903d
00000010: fcd9 3a3d a730 843d 74f6 963d 620c 9d3d
00000020: dbaf 593d ffd1 213d 87a8 593d 22db a53b
00000030: 864a 183d acb2 133c d3e5 82bc e4a4 a9bc
00000040: 455f f0bc d087 00bd 32a4 d3bc d606 e8bc
00000050: e4fa 18bd 9e92 49bd e726 25bd 12a1 86bc
00000060: 1bcb 59bc 8d50 1e3c 8889 22be c931 21be
00000070: 6205 07be 62c3 0cbe 7f37 02be 45e3 06be
00000080: d2cf d0bd 1381 f7bd 146b a4bd 0422 b5bd
00000090: 4a0d 53bd 9e19 c3bd 720c 60bd 4126 ffbc
000000a0: a337 34bd ba02 4bbd 9b0e 8ebd 9fd4 babd
000000b0: 5081 c3bd d9d6 d6bd 2d97 d2bd 57b5 cebd
000000c0: 24ef c4bd 88e4 afbd f807 71bd e481 e7bc
000000d0: 8f08 193c 15dd e83c 75dd d43c 9c8a ca3c
000000e0: d669 073d 0743 203d 96ef 513d 7103 423d
000000f0: 1be1 823d 6231 623d 60e7 413d dc8a 413d
00000100: 629f 3e3d e7dd d43d ec01 b23d adb6 c03d
00000110: 1db6 c73d 5a0f cc3d 9266 e53d f28e e13d
00000120: 0ddc d53d 4f8c 613d fb89 0d3d 210c 053d
00000130: b92f 193d 4c8f 483d 6111 5cbd f860 8abd
00000140: 3e0a cebd 030c bfbd 6fca 80bd 89c2 b7bd
00000150: 91c2 eabd 7577 adbd 4e85 d1bd 2cd1 9dbd
00000160: c88f e1bc 9926 2bbd b874 d7bb 6108 573c
00000170: 9886 4f3d 7b3c 7d3d 7140 8c3d 0de6 a53d
00000180: e0d4 843d 2e85 323d 7191 1c3d bbf1 c43c
00000190: 2ecf 333d f6d9 29bc 83bd 3d3c d1c2 04bd
000001a0: 865b f03d 9736 c03d 9c7a b73d 4c26 053e
000001b0: c5c9 a63d 8886 c63d 5598 9c3d 0b27 cf3d
000001c0: d439 3a3d 05ea 7a3d f4ba 4a3d 63ff 68bb
000001d0: 10bb 813d 1ad5 b73b f876 bebc be05 df38
000001e0: 46a3 9abc f3bc 593c 763c 653c 513f f5bc
000001f0: 4bcb 56bd 325a afbd efcf 85bd 164c 58bd
00000200: d813 43bd aa0b 59bb f3ed 013c 802e fb3c
00000210: e061 ea3c c8f7 813c c4bb 703d 234d 573d
00000220: 07ae f83c ec62 023c ffac ab3b 8e5a 873b
00000230: f2d6 b13c eda8 3c3d 834d c53d 95dd 0c3d
00000240: 7afa 0d3d e5c2 ee3c 7c1c d83c 1618 bd3c
00000250: 37b5 233c dcf5 52ba d33c c9bb c84b 40bc
00000260: b5c0 7bbc c400 2bbc d600 393c ec82 7fbc
00000270: 088d a2bc 7159 b93c fa6c 173d cb7e 9f3c
00000280: 71df c2ba 12b3 1d3c a43d 68bb d054 ff3c
00000290: 6fc6 ab3c 4b75 993c 53fd 623c 2e45 5fbc
000002a0: 3b94 243d d49a 533d 2a34 0a3d 937b 0d3d
000002b0: faf8 833a e3c0 463c 99bc 863b dc24 fc3c
000002c0: a213 203d 6ca3 1e3d 8b63 923c cbaf 0e3c
000002d0: 18d4 4e3d 30b7 0f3c 773f e53a 0430 693b
000002e0: db3a 913b ad18 043a 344a 523b b5dd 873b
000002f0: 9677 603b 1b7a 8b3b 24e2 143b 3b87 ae3a
00000300: d36f 79bb c241 0e3c e661 9c3b d7a1 2abc
00000310: 4737 05bc 9c1f 0abc 760c 0cbc db87 ecbc
00000320: 2537 99bc 701c a9bc 1469 7dbc 51e9 75bc
00000330: 63e5 88bc 5dd6 35bc f78b 91bb 5260 2fbb
00000340: 9501 933c 7fa3 f9bc c226 663b 16fa aebc
00000350: 5469 84bc 0fc7 37bd 0459 9fbc 4c75 d6bb
00000360: a008 9abc be4d b5bc 88fe 563a 4943 3abd
00000370: d861 ba3b d8ff df3b 32a6 353c 58fa 4d3c
00000380: ddee da3c c4bf e03c 7346 e23c 3128 143d
00000390: 373c d33c 5d1d ea3c 4505 a23c 0e89 d53c
000003a0: c1f1 7f3c e6a0 cb3c 70f8 a93d 08b0 9b3d
000003b0: 35f1 a13d 3037 e93d f631 ce3d 8d5c 8d3d
000003c0: 9185 a03d 1884 583d 5c34 933d 1380 103d
000003d0: 74a4 673d d7ae 173d 1f06 8e3c 4f7b 17bd
000003e0: c40e adbd b34d d2bd 84b8 38be c6b6 11be
000003f0: a2c2 2fbe c822 21be 6fc4 34be c003 02be

proxy.blocks.1.conv1.bias f4 [64]
-0.19839254 -0.04783696 0.07741087 -0.052502785 0.16826975 -0.083037995 -0.18809421 -0.008528108
0.02057708 0.09392696 -0.12838268 0.07127507 0.011521771 -0.050013047 0.13683388 0.11534894
0.065523796 0.10547121 -0.13820155 -0.06949233 0.054719828 0.06142639 -0.0039855684 0.0012793313
-0.07025885 -0.04100087 -0.014954907 -0.068359174 -0.018110843 0.0014526161 0.11548584 0.19517201
-0.057528302 -0.08594681 -0.0074432557 -0.056636732 -0.015736211 0.013178348 0.03170278 -0.008227377
-0.020640083 0.09041347 0.016168829 -0.051639147 0.031062456 0.07002592 0.02892907 0.04297592
-0.14290805 -0.018437695 -0.18066768 -0.0025851543 -0.0671732 -0.098927535 0.10179853 -0.05025928
-0.007791169 -0.059573308 -0.06747106 -0.07871637 0.038497485 -0.10047825 0.050132703 -0.11430954
00000000: 6a27 4bbe b0f0 43bd 9789 9e3d 290d 57bd
00000010: e84e 2c3e d30f aabd c59b 40be 7ab9 0bbc
00000020: 4491 a83c c75c c03d c076 03be aaf8 913d
00000030: cfc5 3c3c 7bda 4cbd 2e1e 0c3e 113c ec3d
00000040: 5731 863d 4a01 d83d b584 0dbe ff51 8ebd
00000050: e621 603d 3d9a 7b3d 5f99 82bb 3caf a73a
00000060: dfe3 8fbd 87f0 27bd 6d05 75bc e5ff 8bbd
00000070: 315d 94bc b565 be3a d783 ec3d 2cdb 473e
00000080: cca2 6bbd e204 b0bd 8ee6 f3bb ebfb 67bd
00000090: 3ae9 80bc ffe9 573c c6da 013d 1fcc 06bc
000000a0: 6415 a9bc b32a b93d 7e74 843c 9283 53bd
000000b0: b176 fe3c c069 8f3d a8fc ec3c 8507 303d
000000c0: 7d56 12be a60a 97bc f300 39be b16b 29bb
000000d0: 1a92 89bd 859a cabd bf7b d03d addc 4dbd
000000e0: 104d ffbb 2403 74bd 442e 8abd 0c36 a1bd
000000f0: 8aaf 1d3d 8ac7 cdbd f357 4d3d 1f1b eabd

proxy.blocks.1.film.bn.running_mean f4 [64]
-0.50823253 -3.984575 2.0033274 0.8571804 4.9901376 1.4046953 -0.53024584 2.7439907
1.80066 2.9954052 -1.0127871 3.6575236 0.5283269 0.7404478 0.93985593 4.279916
0.07722587 0.9298041 -2.8549392 0.41540378 -0.12628686 0.06357865 -0.923459 -1.1706749
2.1805599 -3.5559566 0.046782825 -0.20105626 0.18432108 5.1503043 -2.7053494 4.4725227
3.516166 -2.9583628 3.4459472 1.6367095 -0.97614664 -1.6239529 0.8855202 -1.3402872
-1.3377358 -5.333922 -1.9492096 2.6488416 -0.5952434 1.0847594 1.8604075 0.46342802
2.569577 -1.4011629 3.36198 -0.31266168 -0.3640375 1.3777542 0.49976566 -0.3208239
-1.111441 -0.5042178 -3.5677245 -3.6220315 4.4186854 -0.31412265 -5.73994 -2.3325953
00000000: 871b 02bf 4703 7fc0 8436 0040 2d70 5b3f
00000010: 35af 9f40 0ecd b33f 31be 07bf 8b9d 2f40
00000020: 077c e63f b8b4 3f40 02a3 81bf de14 6a40
00000030: 6f40 073f fd8d 3d3f 669a 703f 12f5 8840
00000040: 9928 9e3d a407 6e3f 53b7 36c0 ceaf d43e
00000050: 5851 01be 8635 823d cf67 6cbf add8 95bf
00000060: 4b8e 0b40 cb94 63c0 599f 3f3d b1e1 4dbe
00000070: aabe 3c3e 4bcf a440 7224 2dc0 e81e 8f40
00000080: dd08 6140 d155 3dc0 668a 5c40 b27f d13f
00000090: bfe4 79bf b0dd cfbf 74b1 623f 888e abbf
000000a0: ed3a abbf 7daf aac0 b37f f9bf 9f86 2940
000000b0: df61 18bf 65d9 8a3f d521 ee3f 7046 ed3e
000000c0: f373 2440 4e59 b3bf ae2a 5740 3115 a0be
000000d0: 2063 babe 405a b03f 49e1 ff3e 0843 a4be
000000e0: b343 8ebf 6b14 01bf 9955 64c0 5dcf 67c0
000000f0: df65 8d40 afd4 a0be 97ad b7c0 3e49 15c0

proxy.blocks.1.film.bn.running_var f4 [64]
1.7283121 2.0066044 1.3010612 0.41008446 0.48381567 3.217442 0.24887016 0.6438836
0.59224385 0.13772824 1.0688758 1.0430142 4.851592 0.17821929 0.14871603 3.1835566
1.7703209 0.19933298 0.5072375 0.53800625 0.0807561 0.3458432 0.81494206 3.4495609
2.8700404 1.9677144 1.5985005 3.5158126 0.6723086 1.8710569 4.9186106 0.44509223
1.4199893 3.48752 3.8200965 1.2537111 4.920082 1.7401453 2.8532655 0.44201097
1.219603 2.4493985 1.593205 1.7133561 3.3839877 3.679773 0.37241942 0.059976194
2.9357054 1.7342317 1.8595573 1.5767034 4.13395 2.5129824 2.4037154 0.10326944
0.68441504 0.09302098 1.1746441 0.87949616 4.7746987 3.4459543 2.8918962 0.17515488
00000000: 5539 dd3f 356c 0040 2c89 a63f 97f6 d13e
00000010: b0b6 f73e 92ea 4d40 d2d7 7e3e 8ed5 243f
00000020: 4b9d 173f a208 0d3e ecd0 883f 7d81 853f
00000030: 3e40 9b40 1e7f 363e 0449 183e 64bf 4b40
00000040: e099 e23f f21d 4c3e 51da 013f c7ba 093f
00000050: 7463 a53d 5c12 b13e 0ba0 503f 9bc5 5c40
00000060: beae 3740 11de fb3f aa9b cc3f 1303 6140
00000070: 6b1c 2c3f cb7e ef3f 4265 9d40 21e3 e33e
00000080: 36c2 b53f 8733 5f40 767c 7440 9b79 a03f
00000090: 5071 9d40 15bd de3f e79b 3640 434f e23e
000000a0: f31b 9c3f f2c2 1c40 24ee cb3f 414f db3f
000000b0: 4193 5840 6781 6b40 c2ad be3e 99a9 753d
000000c0: 99e2 3b40 4efb dd3f f905 ee3f 6bd1 c93f
000000d0: 5249 8440 b4d4 2040 79d6 1940 ee7e d33d
000000e0: d335 2f3f c981 be3d bd5a 963f a926 613f
000000f0: 55ca 9840 848a 5c40 d414 3940 cd5b 333e

proxy.blocks.1.film.adaptor.weight f4 [128, 18]
-0.24405989 0.20598671 -0.5444185 0.046083733 -0.062493976 0.071445204 -0.02770358 0.06819029
0.013135424 -0.08988009 -0.11789259 0.044559553 -0.021030927 -0.036794327 -0.1292864 0.10512256
-0.09708725 0.010969571 -0.11469992 -0.18685456 -0.16886218 0.08619454 -0.16086711 -0.11130495
0.027191559 0.1595012 -0.040541273 -0.08098555 -0.12578663 -0.08738881 -0.06552026 0.10501528
0.1130648 0.053245857 -0.033556975 0.04800428 0.26373982 0.35152864 -0.14093265 -0.0127500435
0.066776745 0.11292404 -0.085591614 -0.03980552 -0.01475079 -0.06032587 -0.0150133055 -0.062835954
-0.011364487 -0.051573414 0.02835161 0.040066205 -0.13131596 -0.0006418615 -0.091692924 0.001969444
-0.01800219 -0.16952206 -0.16265516 0.116451256 0.22902508 -0.041885607 -0.19272837 0.026703319
0.04845683 0.11279686 -0.07445221 -0.07786956 -0.066116385 0.11291757 -0.010097653 -0.05288347
0.15800755 0.05658715 -0.062203474 0.27211428 0.09425644 0.26933852 -0.09527638 -0.04714781
0.022900755 -0.002922439 -0.004965095 -0.10282314 -0.11260969 -0.09293727 -0.08553006 -0.046498686
-0.06659191 -0.08622578 -0.2770028 0.076526985 -0.2854932 0.040141016 -0.060724184 -0.13293348
-0.10554403 -0.08941685 -0.074043855 -0.011633647 -0.09023864 0.011156949 -0.018741075 -0.0940745
0.029175125 0.06965533 -0.019369973 -0.16747376 -0.07272045 0.003457823 -0.005601606 0.4443936
-0.11680854 -0.55765617 0.07675089 -0.0047138156 0.067421675 0.027934808 0.003801212 0.053792767
0.003982653 0.002715383 0.017667016 0.02760184 0.03119518 -0.0080026565 0.1924491 0.1994486
-0.0690147 -0.09633408 -0.11321043 -0.055943232 0.032493856 -0.06105631 -0.026689976 -0.111432046
-0.041685503 3.0098592e-05 -0.10580917 -0.047442853 -0.008379164 -0.115642 0.017856814 -0.0062613445
-0.50287926 -0.03313521 -0.003764876 -0.022093276 0.078169614 0.124026716 -0.07719209 0.066270664
0.09130529 -0.023488047 -0.010868535 0.0075349524 -0.022556933 0.025271693 0.036643572 -0.003355525
-0.03430937 0.012786062 0.019673781 0.0006384167 0.025559435 -0.01673268 -0.0024562026 -0.0075935046
-0.006281452 0.005405913 -0.0065991683 -0.024323193 0.006768475 -0.016375953 -0.045084316 -0.008601474
0.0027764016 -0.54442346 -0.11014118 -0.033275403 0.110907 0.22033045 -0.77374834 -0.11774708
0.11498151 -0.047494058 -0.020064674 -0.009276262 -0.021322692 0.124695495 0.05767746 -0.079115026
0.080139756 0.021964487 0.020170437 -0.00207204 0.043863036 0.041611426 0.26664487 0.51035345
-0.092259586 -0.10720923 -0.09768954 0.08974934 -0.080973916 0.07398952 -0.027168266 0.048540194
-0.12562989 -0.009695948 0.056958225 -0.0048466087 -0.044172913 -0.13569915 0.03435521 0.024276977
0.62881625 -0.76086444 0.24984977 0.022751091 -0.028385723 -0.059448075 0.11019578 0.090009905
0.082592994 0.0031194314 0.06760552 -0.019349791 -0.042397503 0.01792689 0.06772473 0.026098613
0.03676246 0.034104984 0.12097858 0.10048819 -0.03415216 0.05613906 0.117674306 0.031417493
0.12538923 0.053071577 0.17164417 -0.123275764 -0.075036176 -0.12819672 -0.121838816 -0.013295548
-0.078394145 0.108755894 0.15902132 -0.008326511 0.20443556 0.09728195 -0.14392433 -0.048303183
00000000: d6ea 79be 2eee 523e 035f 0bbf 4cc2 3c3d
00000010: aff9 7fbd dd51 923d 9ef2 e2bc 5aa7 8b3d
00000020: f635 573c 0d13 b8bd ac71 f1bd 1484 363d
00000030: 0d49 acbc a6b5 16bd a763 04be 7f4a d73d
00000040: aed5 c6bd b7b9 333c cbe7 eabd cd56 3fbe
00000050: 35ea 2cbe c386 b03d 59ba 24be daf3 e3bd
00000060: d5c0 de3c 4854 233e 9b0e 26bd c1db a5bd
00000070: 36ce 00be e8f8 b2bd 7c2f 86bd 4012 d73d
00000080: 858e e73d 5418 5a3d 0a73 09bd 23a0 443d
00000090: e808 873e 90fb b33e a650 10be 8fe5 50bc
000000a0: 3fc2 883d b844 e73d a84a afbd 1d0b 23bd
000000b0: 4cad 71bc 4218 77bd 5efa 75bc 23b0 80bd
000000c0: 1d32 3abc a53e 53bd a341 e83c 761c 243d
000000d0: b177 06be 9942 28ba 80c9 bbbd ca11 013b
000000e0: 5479 93bc 3197 2dbe 138f 26be ff7d ee3d
000000f0: 8d85 6a3e 3e90 2bbd 965a 45be ebc0 da3c
00000100: ab7a 463d 0a02 e73d 667a 98bd 137a 9fbd
00000110: 0768 87bd 5441 e73d a070 25bc 569c 58bd
00000120: bbcc 213e edc7 673d 12c9 7ebd 9052 8b3e
00000130: 8509 c13d bde6 893e 4320 c3bd 101e 41bd
00000140: 5d9a bb3c 6486 3fbb 3cb2 a2bb f094 d2bd
00000150: e99f e6bd e555 bebd 622a afbd 6875 3ebd
00000160: 5761 88bd 2497 b0bd 50d3 8dbe 2eba 9c3d
00000170: 2a2c 92be e86a 243d ecb9 78bd b71f 08be
00000180: 7827 d8bd 2e20 b7bd 4ea4 97bd 0d9b 3ebc
00000190: 09cf b8bd a3cb 363c e286 99bc 22aa c0bd
000001a0: ac00 ef3c 74a7 8e3d c7ad 9ebc 3e7e 2bbe
000001b0: 76ee 94bd a59c 623b ad8d b7bb 8f87 e33e
000001c0: 5139 efbd 8ec2 0ebf 922f 9d3d 5a76 9abb
000001d0: 6014 8a3d 8ad7 e43c c11d 793b ce55 5c3d
000001e0: ea80 823b 91f4 313b 6bba 903c 411d e23c
000001f0: 098d ff3c 931d 03bc 6011 453e 413c 4c3e
00000200: 9457 8dbd cd4a c5bd dfda e7bd bb24 65bd
00000210: 4718 053d 2e16 7abd f0a4 dabc 7c36 e4bd
00000220: 6bbe 2abd 3c7c fc37 7ab2 d8bd 7053 42bd
00000230: c348 09bc b7d5 ecbd 7448 923c f72b cdbb
00000240: b2bc 00bf c9b8 07bd 23bc 76bb f5fc b4bc
00000250: 6417 a03d b801 fe3d e316 9ebd eab8 873d
00000260: 45fe ba3d 016a c0bc f111 32bc c3e7 f63b
00000270: 51c9 b8bc 9506 cf3c 9217 163d 5ee8 5bbb
00000280: fb87 0cbd a27c 513c e92a a13c 6b5b 273a
00000290: 0562 d13c f912 89bc 3ef8 20bb efd2 f8bb
000002a0: a3d4 cdbb 1624 b13b d63d d8bb 6f41 c7bc
000002b0: 15ca dd3b dd26 86bc 55aa 38bd 32ed 0cbc
000002c0: 4af4 353b 565f 0bbf b391 e1bd ca4b 08bd
000002d0: 3623 e33d 4e9e 613e 5f14 46bf 6225 f1bd
000002e0: 6d7b eb3d 2189 42bd ac5e a4bc 76fb 17bc
000002f0: edac aebc 5a60 ff3d 333f 6c3d 0f07 a2bd
00000300: 5020 a43d deee b33c 793c a53c 10cb 07bb
00000310: baa9 333d be70 2a3d ad85 883e 86a6 023f
00000320: 98f2 bcbd 8390 dbbd 7411 c8bd 81ce b73d
00000330: a7d5 a5bd d187 973d fc8f debc 15d2 463d
00000340: 1fa5 00be c1db 1ebc 074d 693d 4dd0 9ebb
00000350: a8ee 34bd b8f4 0abe 0cb8 0c3d 83e0 c63c
00000360: 1afa 203f 03c8 42bf 9ed8 7f3e 7f60 ba3c
00000370: 2d89 e8bc d37f 73bd 53ae e13d 1d57 b83d
00000380: 8426 a93d 606f 4c3b c374 8a3d 7483 9ebc
00000390: 01a9 2dbd 6adb 923c 43b3 8a3d c2cc d53c
000003a0: 3c94 163d abb1 0b3d 9ec3 f73d c1cc cd3d
000003b0: 23e3 0bbd 12f2 653d 3aff f03d a1af 003d
000003c0: 0966 003e 9561 593d 7dc3 2f3e 0178 fcbd
000003d0: 91ac 99bd 0046 03be a186 f9bd 92d5 59bc
000003e0: 1c8d a0bd 69bb de3d 7cd6 223e eb6b 08bc
000003f0: 8e57 513e c23b c73d e660 13be 8fd9 45bd

proxy.blocks.1.film.adaptor.bias f4 [128]
-0.07631463 -0.093091145 -0.15519363 0.26672587 -0.12488006 -0.18110925 -0.15625064 -0.10398682
0.1654487 0.17114791 0.09929079 0.019195337 -0.13033621 -0.276902 0.15453526 0.08548622
-0.14788966 0.20953462 -0.17696552 -0.14694034 -0.20039377 -0.27779394 0.1574367 0.32259694
-0.08925377 0.19971202 -0.048592716 0.23692942 -0.2440903 0.28253457 0.17232372 -0.04684284
-0.1550717 0.26822093 0.12854414 0.10755885 -0.118239984 -0.2490566 -0.04239371 -0.038507808
-0.34659347 0.025714727 0.008746481 0.2971144 0.1967384 0.035302896 0.102620795 -0.1575172
-0.2825293 -0.054546423 -0.09608195 -0.17363985 0.05452176 -0.12638898 -0.01859535 -0.07471784
0.18312566 -0.014762635 0.11265911 -0.20348038 0.07451284 0.121514425 0.025682783 0.109067716
-0.03459453 -0.007899634 0.1495709 -0.4295739 0.15147442 0.09546022 -0.035401937 0.2568857
0.13257883 0.009922852 0.07652423 -0.13405497 -0.11163141 -0.075633526 -0.30160776 0.09928592
0.11658235 0.015332983 -0.94100124 -0.117420726 0.2733825 -0.11891753 -0.0510686 0.21772267
0.018948102 0.26479092 -0.040787145 -0.0307675 0.069071606 -0.07854088 -0.19965957 0.038122363
-0.31997514 -0.06737267 0.002064917 0.2586977 -0.07360923 -0.13841 0.0042318776 -0.21748555
-0.00917502 -0.28669208 0.25345886 0.19828819 0.179892 -0.033022664 -0.0046551228 -0.30000266
0.11312511 0.114526376 -0.10473318 -0.22505276 -0.17078328 -0.11853322 0.2108711 0.14674224
0.14272596 0.23238492 0.103226215 -0.31882474 0.019901883 0.057733987 -0.18254532 -0.0837244
00000000: d84a 9cbd 92a6 bebd 14eb 1ebe 4b90 883e
00000010: 1ec1 ffbd b474 39be 2b00 20be 0bf7 d4bd
00000020: 626b 293e 6641 2f3e f858 cb3d 8a3f 9d3c
00000030: db76 05be 19c6 8dbe 7e3e 1e3e 6613 af3d
00000040: 6370 17be 3e90 563e 7336 35be 8777 16be
00000050: 0634 4dbe 023b 8ebe 1637 213e 6d2b a53e
00000060: aeca b6bd 4f81 4c3e 2809 47bd a09d 723e
00000070: cff2 79be 5fa8 903e a175 303e 47de 3fbd
00000080: 1ecb 1ebe 4154 893e 13a1 033e d047 dc3d
00000090: ce27 f2bd b108 7fbe 07a5 2dbd 5dba 1dbd
000000a0: b374 b1be b1a7 d23c 664d 0f3c 611f 983e
000000b0: cb75 493e c599 103d da2a d23d 304c 21be
000000c0: aea7 90be 126c 5fbd 9dc6 c4bd a5ce 31be
000000d0: 3652 5f3d 1d6c 01be 4755 98bc ab05 99bd
000000e0: 4b85 3b3e fbde 71bc d2b9 e63d 295d 50be
000000f0: 309a 983d 8edc f83d b364 d23c e55e df3d
00000100: feb2 0dbd 776d 01bc 1d29 193e 1cf1 dbbe
00000110: 1c1c 1b3e a680 c33d 9f01 11bd 8686 833e
00000120: bfc2 073e 7593 223c bcb8 9c3d b545 09be
00000130: 029f e4bd c0e5 9abd 556c 9abe 6b56 cb3d
00000140: bac2 ee3d 3137 7b3c 75e5 70bf 477a f0bd
00000150: cbf8 8b3e 098b f3bd 4f2d 51bd b1f2 5e3e
00000160: 0d39 9b3c ad92 873e 6c10 27bd 200c fcbc
00000170: 6a75 8d3d 0ada a0bd 8f73 4cbe 3226 1c3d
00000180: c8d3 a3be affa 89bd 8f53 073b 0674 843e
00000190: 70c0 96bd 5abb 0dbe 90ab 8a3b 88b4 5ebe
000001a0: d352 16bc 4ec9 92be 5cc5 813e 0f0c 4b3e
000001b0: 9c35 383e c642 07bd 008a 98bb f399 99be
000001c0: 23ae e73d ce8c ea3d 597e d6bd 3b74 66be
000001d0: d0e1 2ebe 8bc1 f2bd 98ee 573e 9943 163e
000001e0: c126 123e 50f6 6d3e 4468 d33d ff3c a3be
000001f0: 4609 a33c 797a 6c3d 29ed 3abe b377 abbd

proxy.blocks.1.relu.weight f4 [64]
0.12254636 -2.4868994e-05 0.4284641 0.42336112 0.1717684 -0.0043909727 0.065462284 0.9817075
0.88228554 1.0133493 0.012475974 0.23301284 -0.37785873 0.22732745 0.36868232 -0.2142525
0.13793856 0.9941893 0.37333998 0.19091982 1.009711 0.9966628 0.69033456 0.13610429
-0.25497591 0.6295105 0.6028774 -0.1569823 0.3789062 0.035336826 0.025420574 0.37929246
0.8595837 0.44007507 -0.10265145 0.7571302 -0.34025657 0.124018006 -0.18750317 0.103252046
0.4007935 -0.21987732 0.5505156 -0.18332794 0.037617292 -0.21878643 -0.086864494 0.3506342
0.34503406 0.45683584 0.4273232 0.0972707 -0.20671591 -0.07888038 -0.19155428 0.95777357
0.880351 0.9948893 0.73870724 0.24684094 0.067709535 -0.54786325 -0.09943561 0.34872523
00000000: 96f9 fa3d c29d d0b7 a65f db3e cac2 d83e
00000010: 0ee4 2f3e 26e2 8fbb 1711 863d 2f51 7b3f
00000020: 77dd 613f 6eb5 813f 0768 4c3c eb9a 6e3e
00000030: b376 c1be 87c8 683e eec3 bc3e 0265 5bbe
00000040: c43f 0d3e 3183 7e3f 6b26 bf3e 7c80 433e
00000050: 363e 813f 4b25 7f3f c4b9 303f ec5e 0b3e
00000060: 348c 82be 9a27 213f 2c56 1a3f f8bf 20be
00000070: feff c13e 59bd 103d cf3e d03c 9f32 c23e
00000080: ad0d 5c3f 8551 e13e ec3a d2bd 49d3 413f
00000090: 1c36 aebe 27fd fd3d d500 40be cf75 d33d
000000a0: ce34 cd3e 8527 61be 97ee 0c3f 52ba 3bbe
000000b0: 9714 1a3d 8d09 60be 03e6 b1bd 5386 b33e
000000c0: 4ea8 b03e 63e6 e93e 1bca da3e dc35 c73d
000000d0: 56ad 53be 098c a1bd ce26 44be a630 753f
000000e0: af5e 613f 11b1 7e3f eb1b 3d3f dfc3 7c3e
000000f0: 4cab 8a3d c440 0cbf e6a4 cbbd 1d8c b23e

proxy.blocks.1.res.weight f4 [64, 1, 1]
-0.14078403 -0.025359342 -0.39689612 -0.2660475 0.044782083 0.45516264 0.40031067 -0.046651892
0.22299585 -0.025992064 -0.3458443 0.06441841 0.014464847 0.07647546 0.005847197 0.00017200269
0.47092843 0.49419782 0.025665957 0.8425571 0.09247298 0.6108198 -0.46002722 0.024559597
-0.17899211 0.010084094 -0.4212597 0.076867804 -0.7771721 -0.0924509 -0.23536567 0.2416664
-0.44849336 -0.054203488 0.2893179 0.11693109 0.44341323 0.55261374 -0.4786164 0.07150387
-0.5534897 -0.09949842 -0.13837779 -0.34440807 0.07523606 0.011743882 0.07282072 0.3671792
-0.05557064 0.4639567 -0.018440684 0.29316238 0.38007107 0.45150846 -0.15478882 -0.13462065
-0.5649358 0.03328051 0.24852054 0.0318945 -0.12670773 -0.36587608 -0.4060828 -0.24533036
00000000: b029 10be 65be cfbc f835 cbbe 6137 88be
00000010: 6b6d 373d 140b e93e 85f5 cc3e 0e16 3fbd
00000020: 0659 643e 4fed d4bc 8112 b1be cded 833d
00000030: f7fd 6c3c 2a9f 9c3d d899 bf3b 9f5b 3439
00000040: 881d f13e 7f07 fd3e 6a41 d23c d2b1 573f
00000050: 7962 bd3d b05e 1c3f b088 ebbe 3531 c93c
00000060: b549 37be c137 253c 5aaf d7be de6c 9d3d
00000070: c0f4 46bf e656 bdbd b303 71be 6677 773e
00000080: eca0 e5be 7a04 5ebd 7a21 943e 9179 ef3d
00000090: 0f07 e33e 1878 0d3f 350d f5be 9f70 923d
000000a0: 80b1 0dbf d4c5 cbbd e8b2 0dbe 4156 b0be
000000b0: 5d15 9a3d 6969 403c 0823 953d e9fe bb3e
000000c0: 0a9e 63bd bc8b ed3e eb10 97bc 6119 963e
000000d0: ad98 c23e 1e2c e73e f680 1ebe ffd9 09be
000000e0: a29f 10bf 2551 083d 2b7c 7e3e cfa3 023d
000000f0: acbf 01be 1c54 bbbe 16ea cfbe e237 7bbe
