test/jamendo-comp.ckpt (torch, 679792 bytes, 33 tensors)

proxy.blocks.0.conv1.weight f4 [64, 1, 13]
0.008043591 0.11638969 0.04295876 0.105123445 0.045466125 0.17285778 -0.060928985 0.081292674
0.1672837 -0.1257301 0.17927115 0.504747 0.16225892 -0.027315738 0.05851299 -0.06204181
0.06546949 -0.013673147 -0.027199414 0.04621651 -0.042654954 0.058140118 -0.091174915 0.10836794
0.048334002 -0.16382103 0.04698355 -0.22479863 0.11792758 -0.18075374 0.09643839 0.14018917
0.068387285 0.07026336 0.31768483 0.25598517 0.23168823 0.2738379 0.13717748 -0.0035203258
0.10348958 -0.07521998 0.06918735 0.056852322 0.10635771 -0.09580573 0.09740468 -0.074933425
0.065069616 -0.110912934 -0.1788051 -0.4112855 -0.02917449 0.0733851 -0.041964512 -0.009826674
-0.018119069 -0.069402635 0.11357804 -0.08196028 0.032902896 -0.09194297 0.13806123 0.12909143
0.26959863 -0.06653829 0.117351435 -0.027745316 -0.075993136 -0.19944279 -0.240313 0.01959212
0.032340936 0.030897532 -0.4276044 -0.0404676 -0.2179278 -0.4082563 -0.02418954 0.07059255
-0.06301496 -0.10729712 0.16833976 -0.113255836 0.114151664 -0.20901737 0.22701806 -0.08490767
-0.1487035 0.03784433 -0.0017299443 -0.041068427 0.02011504 -0.1303673 -0.017627561 0.020064868
0.041161876 -0.14959309 0.029921394 -0.16740134 -0.13337041 -0.14040187 -0.18780176 -0.43381286
0.0146392835 -0.1363994 0.0010281719 -0.067664914 -0.26445714 -0.13719282 -0.13498148 -0.0074407086
-0.18862334 -0.16682416 -0.21764018 -0.20330027 -0.26987147 -0.04362412 -0.024717458 -0.116267495
-0.03343126 -0.047034357 -0.04913767 0.010025627 -0.17823675 0.08780079 -0.05253226 -0.16891725
-0.012133569 -0.40430698 -0.035786625 0.10514436 -0.12623546 0.062207993 -0.045444608 0.073162176
-0.017329106 -0.11341523 0.15937683 -0.15928817 0.17351457 -0.21182096 0.19288841 -0.1617613
-0.048421074 -0.117485784 -0.08796008 -0.0135532385 -0.06515638 -0.19657215 -0.035780203 -0.12307156
0.05500362 -0.20175606 -0.14991157 -0.40869415 0.1620754 -0.023289774 0.15352769 -0.048261147
0.15508538 -0.0409568 0.2931839 -0.067509085 0.10328389 0.1933266 0.1711858 0.28586125
0.11084809 -0.05915025 -0.119399264 -0.03629403 -0.059211314 -0.054711554 -0.03954545 -0.16288391
0.01570731 -0.18384877 -0.04884525 -0.13185246 -0.169928 -0.2890355 0.07198961 -0.043856826
0.13514036 -0.045684513 0.05890005 0.04291207 -0.019279813 0.0785749 0.08707673 0.2320447
-0.19745931 0.25192347 0.1786958 -0.019052735 0.00023822265 -0.15786535 0.040676784 -0.0029465498
-0.08167086 -0.10943014 0.041132603 -0.020291869 -0.021917943 -0.05111316 -0.19173414 -0.45421642
-0.01792557 -0.036223337 0.01714228 -0.039959073 -0.1252753 -0.107673205 0.100211926 -0.18243478
0.06571425 -0.17410128 -0.0627052 -0.011399798 -0.43128133 0.05611872 -0.013975291 0.07002022
-0.1624377 -0.0038271567 -0.006971715 0.0040112366 0.001155413 -0.09370809 -0.06794391 -0.0071436986
-0.37959254 0.8601811 -0.09004129 0.0046068216 -0.08910516 -0.040800538 0.021082284 -0.14616491
0.014717164 -0.034358382 -0.0992239 0.029313227 -0.12704018 0.005168424 -0.43932155 0.01736954
-0.02628238 -0.018194683 -0.073560886 -0.04815941 -0.043751203 -0.12554657 -0.05098442 -0.16909197
00000000: 44c9 033c b85d ee3d 86f5 2f3d f64a d73d
00000010: b03a 3a3d a101 313e ac90 79bd c67c a63d
00000020: 6b4c 2b3e 64bf 00be db92 373e 1937 013f
00000030: 3427 263e 41c5 dfbc 51ab 6f3d 8e1f 7ebd
00000040: de14 863d 5605 60bc 4ed1 debc 864d 3d3d
00000050: f6b6 2ebd 5524 6e3d eab9 babd 03f0 dd3d
00000060: e0f9 453d b3c0 27be d371 403d 9d31 66be
00000070: 0484 f13d 8217 39be 7e81 c53d c08d 0f3e
00000080: a20e 8c3d 3de6 8f3d 96a7 a23e 7d10 833e
00000090: ae3f 6d3e 7b34 8c3e 4178 0c3e 44b5 66bb
000000a0: 58f2 d33d ef0c 9abd 19b2 8d3d fbdd 683d
000000b0: 12d2 d93d cb35 c4bd 1b7c c73d b276 99bd
000000c0: 3843 853d 5226 e3bd af18 37be 0394 d2be
000000d0: 57ff eebc ed4a 963d fbe2 2bbd 0f00 21bc
000000e0: 716e 94bc f822 8ebd 9a9b e83d cbda a7bd
000000f0: 30c5 063d 994c bcbd ec5f 0d3e 8b30 043e
00000100: d508 8a3e 3a45 88bd f355 f03d 254a e3bc
00000110: 4aa2 9bbd bb3a 4cbe 9c14 76be a77f a03c
00000120: ee77 043d d21c fd3c f7ee dabe 5bc1 25bd
00000130: 7728 5fbe f806 d1be 2429 c6bc d492 903d
00000140: fd0d 81bd 98be dbbd 4261 2c3e adf2 e7bd
00000150: 59c8 e93d a608 56be 6c77 683e 13e4 adbd
00000160: bb45 18be a802 1b3d 4cbf e2ba 5e37 28bd
00000170: 4cc8 a43c 017f 05be ad67 90bc 145f a43c
00000180: 5b99 283d ee2e 19be b61d f53c 426b 2bbe
00000190: 4192 08be 82c5 0fbe 1b4f 40be b81c debe
000001a0: 9bd9 6f3c 49ac 0bbe b9c3 863a e793 8abd
000001b0: ed66 87be 467c 0cbe 9638 0abe 30d1 f3bb
000001c0: 7a26 41be f4d3 2abe 11dd 5ebe f22d 50be
000001d0: 982c 8abe 35af 32bd 447c cabc a71d eebd
000001e0: 38ef 08bd 19a7 40bd 9544 49bd 8742 243c
000001f0: b283 36be e7d0 b33d 112c 57bd a5f8 2cbe
00000200: e1cb 46bc 5301 cfbe ff94 12bd ed55 d73d
00000210: de43 01be cfcd 7e3d 2024 3abd 0dd6 953d
00000220: c5f5 8dbc 3e46 e8bd ae33 233e 701c 23be
00000230: cead 313e 98e7 58be 8a84 453e c1a4 25be
00000240: 2d55 46bd 639c f0bd 6a24 b4bd 670e 5ebc
00000250: b570 85bd 364a 49be 438e 12bd f10c fcbd
00000260: 7a4b 613d 2499 4ebe 6b82 19be 5c40 d1be
00000270: 18f7 253e 32ca bebc 5d36 1d3e 7bad 45bd
00000280: b4ce 1e3e 51c2 27bd 331c 963e 3442 8abd
00000290: 8186 d33d 69f7 453e 554b 2f3e 685c 923e
000002a0: 5304 e33d 8847 72bd 9a87 f4bd 0ca9 14bd
000002b0: 9087 72bd 3919 60bd 69fa 21bd 0acb 26be
000002c0: 9eac 803c da42 3cbe f511 48bd 5504 07be
000002d0: 9b01 2ebe 76fc 93be 4a6f 933d 37a3 33bd
000002e0: 3c62 0a3e af1f 3bbd 2e41 713d 91c4 2f3d
000002f0: b3f0 9dbc e1eb a03d 4955 b23d 209d 6d3e
00000300: c632 4abe 1dfc 803e 08fc 363e 7b14 9cbc
00000310: 68cb 7939 74a7 21be b39c 263d e71a 41bb
00000320: 0d43 a7bd e91c e0bd a97a 283d 223b a6bc
00000330: 428d b3bc 085c 51bd f455 44be 0e8f e8be
00000340: a5d8 92bc ec5e 14bd f76d 8c3c 20ac 23bd
00000350: 2b48 00be c583 dcbd e93b cd3d 2fd0 3abe
00000360: 3195 863d 9b47 32be 956b 80bd 38c6 3abc
00000370: e8d0 dcbe bedc 653d 9ef8 64bc c366 8f3d
00000380: 1256 26be 09d1 7abb fc72 e4bb b170 833b
00000390: 3a71 973a 07ea bfbd 2d26 8bbd b015 eabb
000003a0: f459 c2be d434 5c3f 9167 b8bd d2f4 963b
000003b0: c47c b6bd 771e 27bd c1b4 ac3c 41ac 15be
000003c0: 4320 713c 60bb 0cbd e635 cbbd 4b22 f03c
000003d0: d216 02be e25b a93b c1ee e0be 914a 8e3c
000003e0: 254e d7bc 040d 95bc 17a7 96bd cd42 45bd
000003f0: 7634 33bd 488f 00be 0ad5 50bd 7226 2dbe

proxy.blocks.0.conv1.bias f4 [64]
-0.52277887 -0.89341795 -0.26275054 1.0630867 -1.105687 -0.017937277 0.71713674 -0.27854884
0.08183191 -0.44082424 -1.0330465 -0.8060004 -0.11572042 -0.36113143 0.01440662 -0.41257983
0.42809218 0.004282236 0.2359072 -0.12766445 -0.5477786 1.0685776 -0.21107808 0.64203364
0.1929942 0.15913618 -0.014522347 0.44686118 0.07215679 -0.48970416 -0.009516576 -0.26306352
-0.020345084 0.83205897 0.37836778 0.010082041 0.6174345 -0.65293574 -0.03762171 0.53665364
0.21372566 0.025393298 -0.0028583382 -0.027588038 0.17364281 0.9889294 0.15456595 -1.0109909
0.33115634 0.11643882 0.12706594 0.8153471 1.0949314 0.35559198 0.39437637 -0.23483185
-0.44704634 0.06317189 0.008914044 -0.05705146 -0.3204053 0.22890322 0.019289928 -0.05318307
00000000: d6d4 05bf 0ab7 64bf 3d87 86be 3a13 883f
00000010: 2787 8dbf 32f1 92bc 4696 373f f49d 8ebe
00000020: 7d97 a73d b7b3 e1be de3a 84bf 0b56 4ebf
00000030: d4fe ecbd 38e6 b8be be09 6c3c aa3d d3be
00000040: e62e db3e 0052 8c3b a891 713e 78ba 02be
00000050: 383b 0cbf 27c7 883f da24 58be 515c 243f
00000060: 46a0 453e 98f4 223e 23ef 6dbc fdca e43e
00000070: f0c6 933d 81ba fabe 6aeb 1bbc 43b0 86be
00000080: bcaa a6bc d101 553f 6cb9 c13e 252f 253c
00000090: 3010 1e3f cc26 27bf 3919 1abd 2262 093f
000000a0: e6da 5a3e 9b05 d03c f552 3bbb 4f00 e2bc
000000b0: 6ccf 313e 7a2a 7d3f 8946 1e3e 2668 81bf
000000c0: 538d a93e 7a77 ee3d 931d 023e 96ba 503f
000000d0: b626 8c3f 2710 b63e b3eb c93e c377 70be
000000e0: 42e3 e4be 4460 813d 360c 123c cbae 69bd
000000f0: 2a0c a4be 9b65 6a3e e905 9e3c 7ed6 59bd

proxy.blocks.0.film.bn.running_mean f4 [64]
-0.5226702 -0.893421 -0.26264575 1.0630516 -1.1056546 -0.018053886 0.7171261 -0.27864873
0.081693925 -0.44090417 -1.0330418 -0.80612075 -0.11560803 -0.36123514 0.01447106 -0.41265938
0.42801404 0.0043020532 0.23583023 -0.1277765 -0.54769593 1.0685694 -0.21113148 0.6420415
0.19312702 0.15900995 -0.014575652 0.4467274 0.072070055 -0.48962444 -0.00961268 -0.26320374
-0.020397503 0.832061 0.37829328 0.010047517 0.6174767 -0.65293765 -0.037598997 0.5366042
0.21380034 0.025456455 -0.0027686048 -0.02778769 0.17366697 0.9889226 0.15442143 -1.0110409
0.33114803 0.11638566 0.12718807 0.8153521 1.0948501 0.35575682 0.39434686 -0.23473002
-0.4470983 0.0632697 0.008881639 -0.05710131 -0.32038814 0.22877799 0.019334437 -0.053143602
00000000: b7cd 05bf 3db7 64bf 8179 86be 1312 883f
00000010: 1786 8dbf bee5 93bc 9395 373f 0cab 8ebe
00000020: 254f a73d 31be e1be b73a 84bf ee5d 4ebf
00000030: e7c3 ecbd d0f3 b8be 0618 6d3c 1748 d3be
00000040: a824 db3e 3df8 8c3b 7b7d 713e d8d7 02be
00000050: cd35 0cbf e2c6 883f da32 58be d55c 243f
00000060: 17c3 453e 81d3 223e b7ce 6ebc 74b9 e43e
00000070: 7799 933d 0eb0 fabe 817e 1dbc a4c2 86be
00000080: aa18 a7bc f301 553f a8af c13e 579e 243c
00000090: f412 1e3f ec26 27bf 6801 1abd e55e 093f
000000a0: 7aee 5a3e 0e8a d03c 7b71 35bb 02a3 e3bc
000000b0: c1d5 313e 082a 7d3f a720 1e3e ca69 81bf
000000c0: 3c8c a93e 9b5b ee3d 973d 023e eaba 503f
000000d0: 0c24 8c3f c225 b63e d5e7 c93e 115d 70be
000000e0: 12ea e4be 8b93 813d 4b84 113c 10e3 69bd
000000f0: ea09 a4be c744 6a3e 4163 9e3c 1bad 59bd

proxy.blocks.0.film.bn.running_var f4 [64]
0.0015950045 4.6516125e-06 0.0016933293 0.0002691013 0.0001732904 0.0018956302 1.8787186e-05 0.0013986318
0.0025989334 0.00085386116 6.5953923e-06 0.0019076713 0.0016950686 0.0014382955 0.00056232186 0.0008724634
0.0008322593 0.00012357668 0.0007826745 0.0017812967 0.000886293 1.3519257e-05 0.00044533654 9.1884394e-05
0.0023607318 0.0021575126 0.0004118679 0.0023684248 0.0011730082 0.0008181047 0.001527236 0.0026571332
0.00040579066 3.1130844e-06 0.00088597834 0.00024633348 0.00025859056 2.3485867e-05 8.9348694e-05 0.00032920926
0.0007537004 0.0006113869 0.0013160557 0.005984386 0.00013354553 1.2633119e-05 0.002858562 0.0003582887
3.2946828e-05 0.0005275837 0.0021432613 7.2964085e-06 0.0008957447 0.003715457 0.00014624596 0.0014210322
0.00043879438 0.0013095799 0.00027121467 0.00037224393 8.7187174e-05 0.0021279154 0.00032702446 0.00022693438
00000000: 780f d13a 0c15 9c36 b4f2 dd3a 2a16 8d39
00000010: 4ab5 3539 cb76 f83a 2d99 9d37 4c52 b73a
00000020: de52 2a3b a7d5 5f3a fd4d dd36 d40a fa3a
00000030: 102d de3a 3085 bc3a c868 133a 07b6 643a
00000040: fa2b 5a3a 5d94 0139 662c 4d3a 667a e93a
00000050: 1e56 683a c4d0 6237 0f7c e939 0fb2 c038
00000060: 82b6 1a3b 0e65 0d3b f9ef d739 9337 1b3b
00000070: a0bf 993a 1476 563a 892d c83a 4c23 2e3b
00000080: 4dc0 d439 62ea 5036 0041 683a 5226 8139
00000090: 7093 8739 8403 c537 b760 bb38 b899 ac39
000000a0: fa93 453a 7b45 203a 807f ac3a ab18 c43b
000000b0: 5b08 0c39 d5f2 5337 b656 3b3b b2d8 bb39
000000c0: 6330 0a38 8b4d 0a3a f575 0c3b acd3 f436
000000d0: 69d0 6a3a 067f 733b 9a59 1939 ee41 ba3a
000000e0: fc0d e639 36a6 ab3a d131 8e39 bc29 c339
000000f0: 42d8 b638 7f74 0b3b 7b74 ab39 3cf5 6d39

proxy.blocks.0.film.adaptor.weight f4 [128, 6]
-0.12667947 0.061372563 0.02054093 -0.03202253 0.29779232 0.3374202 0.55733883 -0.043450683
0.05914071 -0.036251225 -0.09760859 0.08008397 0.047106635 -0.08963837 -0.096752375 0.24626896
0.17801538 0.23902313 0.41577983 -0.19335963 -0.033991184 -0.011093756 -0.048371993 -0.22434975
-0.37018076 0.14841971 -0.15677702 0.0113635715 0.24085891 -0.10276569 0.01713784 0.15070489
-0.10724923 0.033931036 0.20335177 -0.16967487 -0.17800277 -0.021138059 0.013072466 0.025419908
-0.010878809 0.2606346 0.09080458 -0.051811762 -0.0815649 0.018645521 -0.043598395 -0.150063
-0.057729013 0.012712822 -0.05463337 -0.0025611822 -0.018017728 0.31388882 -0.1574607 -0.15560283
0.18842162 0.109726176 0.12038794 -0.45965478 -0.52413183 -0.05794045 -0.049670037 0.08377086
-0.017701093 -0.104904525 -0.38970765 -0.05629139 -0.044747718 0.053175475 -0.006185919 -0.08598245
-0.01886952 -0.0069546695 0.056187 -0.016645348 -0.0061446973 -0.17251766 0.19842191 0.030345341
0.0013717642 0.102583885 0.11929182 0.39234656 0.14422023 -0.13941148 0.047671877 0.04398445
-0.19122979 -0.17632924 -0.22918867 0.0010897565 0.025680017 0.006313511 -0.027589275 0.2301982
-0.026718505 -0.20102367 0.25232232 -0.0464037 0.025254723 0.10656491 0.22077498 -0.22870909
0.06468986 -0.08205294 -0.07692255 0.16851728 -0.043259334 -0.18016624 -0.06752951 -0.038214475
-0.075695224 -0.15333144 -0.07324258 -0.25175583 -0.20258057 -0.033492863 -0.06179134 0.14027719
0.009796246 -0.0054826415 0.06037859 0.09357615 -0.09365427 -0.16308832 -0.52723235 -0.054221865
0.040280234 0.07777432 0.027547501 -0.2850127 0.20443942 0.008249927 0.20240493 -0.015635641
0.12246112 -0.21603076 0.10380334 0.23535174 0.057947267 -0.16186956 -0.035027113 -0.14419107
-0.14399831 0.20061468 0.061560858 0.14416334 -0.009935205 -0.04698624 0.06532585 -0.00358675
0.021994462 -0.10673772 0.21790235 -0.16434166 -0.22935626 -0.044419367 0.2981761 0.12507644
0.06963384 -0.073903024 0.048794113 -0.165609 -0.06175811 0.06673591 0.08046564 0.37366968
-0.37851906 0.019302864 -0.23958388 -0.020785915 0.02452639 0.14941071 0.20591074 0.087011345
-0.08334498 -0.02054955 -0.22903767 -0.0038260377 0.112196825 -0.03726454 -0.18463615 -0.06108692
-0.13478935 -0.16713315 -0.30476108 -0.11911727 -0.012824582 0.10950787 0.17576884 0.28431624
-0.16870114 -0.201569 0.11251472 0.11739357 -0.0978012 0.28121823 0.43276787 -0.08048812
-0.08620961 0.083850615 0.062346336 0.20569228 -0.23625389 0.18609078 -0.18756816 0.3219221
-0.09150964 0.30980387 0.020961182 0.07057808 -0.02372496 0.1571595 -0.062450025 -0.29497975
-0.14680037 0.24134456 -0.0033523983 0.16340752 -0.085855395 0.33901617 0.29411122 0.0186286
-0.09591556 -0.1491472 -0.020979177 -0.26833355 0.13156779 -0.4308679 0.018110262 0.058559105
0.023549696 0.012336024 -0.15638109 0.33883792 -0.008559055 -0.16818303 0.23743452 -0.11739503
-0.12324941 0.3170708 -0.21545942 -0.26716942 0.040602453 -0.05646483 0.15846296 -0.26485136
0.014324323 -0.07376444 -0.057937905 -0.3141091 -0.014666962 0.09677543 -0.24061584 0.18707708
00000000: 43b8 01be cc61 7b3d 7445 a83c 0e2a 03bd
00000010: 3c78 983e 57c2 ac3e c2ad 0e3f 58f9 31bd
00000020: 873d 723d 2a7c 14bd 03e7 c7bd 1103 a43d
00000030: e3f2 403d 5294 b7bd 1c26 c6bd ee2d 7c3e
00000040: aa49 363e 7bc2 743e 18e1 d43e 1100 46be
00000050: 573a 0bbd 96c2 35bc b621 46bd f1bb 65be
00000060: 5588 bdbe 56fb 173e 288a 20be 462e 3a3c
00000070: b8a3 763e d176 d2bd a864 8c3c 6252 1a3e
00000080: 7ca5 dbbd 45fb 0a3d 723b 503e 40bf 2dbe
00000090: 5c46 36be b929 adbc e52d 563c 693d d03c
000000a0: 083d 32bc e671 853e c0f7 b93d 9238 54bd
000000b0: 800b a7bd 7ebe 983c 3b94 32bd 1daa 19be
000000c0: 4275 6cbd 7149 503c 3ec7 5fbd 82d9 27bb
000000d0: ea99 93bc 09b6 a03e 613d 21be 5956 1fbe
000000e0: 99f1 403e 1eb8 e03d f48d f63d df57 ebbe
000000f0: 812d 06bf f752 6dbd cf72 4bbd 0f90 ab3d
00000100: e201 91bc 2fd8 d6bd c387 c7be cd91 66bd
00000110: 6249 37bd 87ce 593d 40b3 cabb 9117 b0bd
00000120: 4094 9abc ffe3 e3bb 5724 663d d35b 88bc
00000130: 7559 c9bb 78a8 30be 1d2f 4b3e cb96 f83c
00000140: c5cc b33a 8017 d23d 454f f43d a6e1 c83e
00000150: 78ae 133e e2c1 0ebe 9643 433d 0a29 343d
00000160: bed1 43be a78f 34be 6fb0 6abe 29d6 8e3a
00000170: e65e d23c 92e1 ce3b e702 e2bc 14b9 6b3e
00000180: c4e0 dabc 26d9 4dbe 6430 813e ce11 3ebd
00000190: fee2 ce3c b43e da3d d612 623e b732 6abe
000001a0: 1e7c 843d 5f0b a8bd 9289 9dbd cb8f 2c3e
000001b0: b330 31bd 807d 38be e94c 8abd c886 1cbd
000001c0: 1906 9bbd eb02 1dbe 3500 96bd 24e6 80be
000001d0: 4871 4fbe d02f 09bd eb18 7dbd d3a4 0f3e
000001e0: 6f80 203c bba7 b3bb 8a4f 773d daa4 bf3d
000001f0: cfcd bfbd a000 27be b3f8 06bf bf17 5ebd
00000200: e3fc 243d 2548 9f3d 4cab e13c 2fed 91be
00000210: 9158 513e b42a 073c 3d43 4f3e 5116 80bc
00000220: e5cc fa3d 2b37 5dbe d896 d43d 0c00 713e
00000230: 1d5a 6d3d 22c1 25be 9778 0fbd d3a6 13be
00000240: 4b74 13be ef6d 4d3e 3d27 7c3d 8e9f 133e
00000250: 45c7 22bc a574 40bd 8fc9 853d ae0f 6bbb
00000260: bb2d b43c 4e99 dabd cb21 5f3e 2e49 28be
00000270: 5edc 6abe 15f1 35bd 8aaa 983e 0a14 003e
00000280: 309c 8e3d 785a 97bd 56dc 473d 6895 29be
00000290: 12f6 7cbd d6ac 883d 2bcb a43d a251 bf3e
000002a0: 40cd c1be 0a21 9e3c 7a55 75be 3947 aabc
000002b0: 91eb c83c 1fff 183e 44da 523e 0133 b23d
000002c0: c6b0 aabd 8857 a8bc da88 6abe 43be 7abb
000002d0: 73c7 e53d b4a2 18bd 4211 3dbe 4736 7abd
000002e0: 3806 0abe f424 2bbe a509 9cbe c1f3 f3bd
000002f0: 321e 52bc aa45 e03d bffc 333e e691 913e
00000300: febf 2cbe 1b68 4ebe 1e6e e63d 0a6c f03d
00000310: ff4b c8bd d6fb 8f3e c093 dd3e f5d6 a4bd
00000320: aa8e b0bd dfb9 ab3d df5e 7f3d ffa0 523e
00000330: 8aec 71be 958e 3e3e de11 40be f9d2 a43e
00000340: 6869 bbbd 9d9e 9e3e c9b6 ab3c 3e8b 903d
00000350: d95a c2bc 6cee 203e 99cb 7fbd 9607 97be
00000360: d652 16be 0723 773e e9b3 5bbb 4d54 273e
00000370: f4d4 afbd 8793 ad3e bf95 963e 019b 983c
00000380: 616f c4bd 0bba 18be 86dc abbc 0463 89be
00000390: b5b9 063e b89a dcbe f95b 943c acdb 6f3d
000003a0: 4beb c03c 091d 4a3c 5d22 20be 2a7c ad3e
000003b0: 473b 0cbc 2c38 2cbe 0922 733e ce6c f0bd
000003c0: 306a fcbd 1b57 a23e 65a1 5cbe 6eca 88be
000003d0: c24e 263d aa47 67bd 1d44 223e 999a 87be
000003e0: 91b0 6a3c d011 97bd 4c50 6dbd e8d2 a0be
000003f0: b34d 70bc 3232 c63d 0064 76be 2291 3f3e

proxy.blocks.0.film.adaptor.bias f4 [128]
-0.23855607 0.08116329 -0.23182242 0.16095337 0.089974456 -0.107299075 -0.112549625 0.12409516
-0.10100458 0.12159505 0.115309924 0.23578924 0.09325972 -0.37129328 0.16790704 -0.080208264
-0.052636035 0.027120631 0.2552571 0.22871712 0.055741206 0.14943121 -0.24230759 -0.09846317
-0.21712808 0.034700006 -0.19486283 -0.16142298 0.11885726 0.20856585 -0.27452913 -0.18049917
0.1853852 0.09583435 -0.0026777023 -0.03767093 -0.2353839 0.14544135 0.27311715 -0.1488919
0.19073668 0.25908437 0.3671303 0.16027056 -0.17194599 0.18294199 0.09783019 0.28319195
-0.044272397 0.23367776 0.18927267 -0.3054329 -0.063553795 -0.05560402 0.25767773 -0.19279218
-0.045486737 0.12361749 -0.31224895 -0.22168082 -0.2020806 0.15434998 0.1501596 -0.20125322
-0.2394787 0.18409239 -0.21579768 0.45593458 0.2584969 0.17513275 -0.14579217 0.047256384
0.060806602 -0.037487593 -0.8994511 0.31338614 0.012190434 0.25230163 -0.27146325 0.21408089
0.3548465 0.21903102 0.10812654 0.48891467 -0.027854132 0.6320528 0.46141428 0.64955944
-0.23051211 0.34960705 0.22303827 -0.17714673 0.3976639 -0.29945728 0.23130752 0.43572015
-0.35208103 -1.8182329 -0.990214 -0.21671592 -0.17486265 -0.49900538 0.34391046 0.3475137
0.23708649 0.26154378 0.14782917 -0.18951213 -0.7931312 0.18131067 0.20169207 -0.033684675
-0.25380063 -1.424275 -0.2834006 0.017363692 0.3915531 -0.15469721 -0.9115254 0.057767473
-0.07241143 0.0088235885 0.10454538 0.20174856 -1.0947026 -0.5486041 -0.09664595 -0.3747152
00000000: 0b48 74be f038 a63d db62 6dbe f6d0 243e
00000010: 8744 b83d 9ebf dbbd 6b80 e6bd 9a25 fe3d
00000020: 7ddb cebd d306 f93d 9c27 ec3d bc72 713e
00000030: f4fe be3d 271a bebe d3ef 2b3e 3b44 a4bd
00000040: e298 57bd 162c de3c 0fb1 823e d234 6a3e
00000050: e450 643d 7f04 193e 7b1f 78be 0fa7 c9bd
00000060: d356 5ebe 9821 0e3d 1f8a 47be 114c 25be
00000070: 6f6b f33d 4992 553e 158f 8cbe c6d4 38be
00000080: 9ed5 3d3e cd44 c43d 647c 2fbb d54c 1abd
00000090: 7a08 71be 94ee 143e 03d6 8b3e 1e77 18be
000000a0: 7a50 433e b5a6 843e 81f8 bb3e f71d 243e
000000b0: 9c12 30be 2555 3b3e 325b c83d 89fe 903e
000000c0: f956 35bd 3949 6f3e b2d0 413e b361 9cbe
000000d0: 7e28 82bd 0ac1 63bd 56ee 833e 506b 45be
000000e0: 4d50 3abd 2b2b fd3d 18df 9fbe 4c00 63be
000000f0: 38ee 4ebe ec0d 1e3e 70c3 193e 5315 4ebe
00000100: e839 75be b782 3c3e 11fa 5cbe 4270 e93e
00000110: b559 843e 0056 333e 8b4a 15be e98f 413d
00000120: 5810 793d 978c 19bd 6d42 66bf 2674 a03e
00000130: 63ba 473c ae2d 813e 3bfd 8abe 0538 5b3e
00000140: 71ae b53e ab49 603e 7371 dd3d 0653 fa3e
00000150: 592e e4bc 36ce 213f 7e3e ec3e 8749 263f
00000160: 5e0b 6cbe b2ff b23e 2564 643e f465 35be
00000170: 9a9a cb3e 7752 99be e1db 6c3e b616 df3e
00000180: f743 b4be dbbb e8bf aa7e 7dbf c7ea 5dbe
00000190: 320f 33be a27d ffbe 0815 b03e 51ed b13e
000001a0: cdc6 723e 11e9 853e 8860 173e 780f 42be
000001b0: a50a 4bbf 81a9 393e 5e88 4e3e f1f8 09bd
000001c0: 28f2 81be a54e b6bf e219 91be 4d3e 8e3c
000001d0: a679 c83e f268 1ebe bb59 69bf 969d 6c3d
000001e0: 724c 94bd d090 103c e31b d63d 2d97 4e3e
000001f0: 371f 8cbf 5171 0cbf 50ee c5bd acda bfbe

proxy.blocks.0.relu.weight f4 [64]
0.27908748 0.9294196 0.34001508 0.8680179 0.9338961 0.77889043 0.33758706 0.593292
0.10192888 0.44327003 0.671615 0.3105971 0.6490462 0.60185874 0.34422013 0.90616345
0.86322594 0.40700272 0.41438878 0.7885584 0.16411477 0.85227585 0.8266207 0.89363897
0.17796452 0.9613006 0.85883325 0.24324137 1.0282775 0.099752985 0.11068889 0.8883221
0.3544691 0.46713847 0.46225235 0.3189888 0.52842766 0.30777335 1.0292078 0.5716543
1.0429821 0.9894516 0.050787486 0.07976745 0.31294236 0.9130274 0.21656063 0.6821224
0.42669743 0.5183918 0.22055689 0.84945375 0.89195526 0.22621155 0.22030504 0.5137629
0.13972646 0.97908497 0.7235221 0.17312434 0.42584014 0.27447957 0.29154548 0.30141354
00000000: 8ee4 8e3e 71ee 6d3f 7516 ae3e 6c36 5e3f
00000010: d113 6f3f 5d65 473f 36d8 ac3e fce1 173f
00000020: 17c0 d03d 4af4 e23e f6ee 2b3f 9506 9f3e
00000030: e427 263f 6a13 1a3f 9f3d b03e 54fa 673f
00000040: 60fc 5c3f a962 d03e c42a d43e f7de 493f
00000050: b40d 283e c02e 5a3f 6a9d 533f 86c5 643f
00000060: 553c 363e cc17 763f 7fdc 5b3f 4414 793e
00000070: 999e 833f 4b4b cc3d dbb0 e23d 1469 633f
00000080: f97c b53e c62c ef3e 57ac ec3e 8052 a33e
00000090: 0947 073f 7894 9d3e 15bd 833f f057 123f
000000a0: 7080 853f b34c 7d3f 8a06 503d 1e5d a33d
000000b0: fb39 a03e 2abc 693f 12c2 5d3e 939f 2e3f
000000c0: 1678 da3e 53b5 043f aad9 613e cd75 593f
000000d0: 2e57 643f 00a4 673e a597 613e f785 033f
000000e0: 7414 0f3e 50a5 7a3f bf38 393f 8247 313e
000000f0: b807 da3e 9688 8c3e 7345 953e e052 9a3e

proxy.blocks.0.res.weight f4 [64, 1, 1]
-1.1243243 0.6043773 0.0032861638 -0.6411138 -0.3062006 -1.0760757 1.0110271 -0.37560722
-0.74272937 -0.95236635 0.3740747 -0.32706553 -0.3374609 -0.23498413 -0.8914198 0.21336259
1.0048925 -0.9536575 -0.1064855 -0.9318622 -0.4759032 1.0996017 0.29995272 1.2318437
0.010563404 -0.7179917 -0.98560566 0.93378854 -0.90738267 0.55699223 -0.13327348 0.38286301
0.6982718 0.024822269 0.7910472 -1.0949284 -0.3356817 0.8225807 0.011939118 -0.47487405
-0.3817733 -0.7444793 0.14339128 -0.26602617 0.27636543 0.4860025 1.0700943 -0.6802652
-0.5730646 0.83348054 0.83042824 -0.72124654 -1.1773243 0.3702283 0.5722566 0.25376877
0.95366603 -0.7744815 0.8429696 -0.8389132 0.6388403 0.8874257 0.6149925 1.1985173
00000000: dce9 8fbf 79b8 1a3f ae5c 573b 0920 24bf
00000010: 53c6 9cbe d9bc 89bf 5669 813f 974f c0be
00000020: 8323 3ebf 48ce 73bf b886 bf3e 2275 a7be
00000030: adc7 acbe ae9f 70be 1734 64bf b97b 5a3e
00000040: 51a0 803f e622 74bf 1215 dabd 858e 6ebf
00000050: 96a9 f3be c0bf 8c3f 6793 993e 0ead 9d3f
00000060: 2112 2d3c 4ece 37bf a750 7cbf c40c 6f3f
00000070: 3b4a 68bf 0b97 0e3f d878 08be 9f06 c43e
00000080: f1c1 323f 1258 cb3c 1282 4a3f 9d26 8cbf
00000090: 79de abbe a694 523f 4a9c 433c b122 f3be
000000a0: ca77 c3be 3296 3ebf 2ad5 123e 9534 88be
000000b0: c57f 8d3e 52d5 f83e daf8 883f dc25 2ebf
000000c0: 5db4 12bf fb5e 553f f296 543f 9da3 38bf
000000d0: 90b2 96bf 908e bd3e 697f 123f fbed 813e
000000e0: 7523 743f 6b44 46bf dbcc 573f 04c3 56bf
000000f0: 0a8b 233f 552e 633f 2670 1d3f 0469 993f

proxy.blocks.1.conv1.weight f4 [64, 64, 13]
0.009197362 0.012410242 0.020108514 0.07300128 0.057712793 0.021147763 0.0735959 0.08310828
0.014751518 0.06338622 0.052106507 0.12802818 0.22155319 0.016649146 0.017618777 0.02041078
0.006845377 -0.0068002203 -0.008374357 -0.001025096 -0.012417856 -0.000168344 -0.02062682 -0.026009718
-0.004368399 0.13014854 -0.0014552034 0.0068331594 -0.006872026 -0.021476459 -0.024627412 -0.027242633
-0.0052167927 -0.031114297 0.0012011387 0.008067352 -0.03337299 -0.006300576 0.05205713 -0.032215
-0.0010600646 -0.020672264 -0.0020977836 -0.008313878 0.01115901 -0.019967858 -0.019845447 -0.009614884
0.0016780865 0.0125256805 -0.0042711375 0.029115347 0.0052688187 0.016478283 0.012405635 0.020604374
0.050377652 0.008784155 0.013957488 0.04452723 0.037678182 0.023398912 0.027038503 -0.046021253
-0.0065308358 -0.02347788 -0.0061269226 -0.017296687 0.02073635 -0.00013415852 0.01598555 -0.019129254
0.01604032 0.015857855 -0.030689824 -0.006388435 -0.011217544 0.04187946 -0.024603294 -0.02152551
-0.0032226653 -0.042546265 0.017038085 -0.038432147 0.0038532258 -0.027399099 -0.01558042 -0.015042685
-0.021283759 -0.027451383 -0.14611419 -0.04890775 0.0059277844 -0.04544964 -0.049134005 -0.024803214
-0.029471701 -0.020514378 -0.040020388 5.096627e-05 -0.049510024 -0.018480258 -0.010607061 -0.041556496
-0.04124079 -0.035186164 -0.054967515 -0.051480703 -0.058634344 -0.060308285 -0.0562219 -0.008782216
-0.048581682 -0.027636705 -0.014173636 -0.015355612 -0.050624404 0.008174686 0.01904136 0.035513606
0.004180269 0.029889492 0.038758535 0.050652217 0.042918913 0.027772987 0.035897333 0.03880259
0.07130478 0.15022828 -0.022907417 -0.03687499 -0.029674541 -0.019253131 -0.022225901 -0.034469754
-0.026358312 -0.04060761 -0.032444507 -0.035542198 -0.015603411 0.019499497 -0.00923803 -0.01134241
0.00042092561 -0.025020162 0.00757136 -0.018259881 0.0010614855 -0.031990193 -0.012941832 -0.0031746738
-0.02516019 -0.022798892 0.024713885 0.049338195 0.007822731 0.0033058692 0.022763617 -0.002533145
0.06266911 0.017769847 0.021830963 0.034188204 0.04182281 0.029805033 0.043806374 0.0073078834
0.018170346 0.013505172 -0.019781468 0.00178451 0.008659848 0.011898759 0.019974742 0.030170877
0.006484193 -0.0057093618 -0.0059201256 -0.027206892 -0.016855797 -0.08212319 -0.01567921 -0.007248984
-0.030548327 -0.051253818 -0.044819057 -0.031631686 -0.020868773 -0.031532455 -0.034960352 -0.0034785345
-0.002618267 0.020712905 0.14831503 0.0049297395 0.01078688 -0.02982688 -0.0072250483 -0.0044038636
0.010484955 0.020289091 -0.011136563 -0.021805044 0.01840024 0.033714842 0.049192805 -0.018425526
0.019028569 -0.003574223 0.01934741 -0.026962936 0.013953686 0.004012675 -0.013660915 0.032939065
-0.01769409 0.026438849 0.004751802 -0.027501447 -0.009199962 0.0009361707 0.016654968 0.015558274
-0.020294664 0.014851185 -0.012303322 -0.010879592 -0.008517462 0.009584207 -0.03444172 -0.009679236
0.041508555 -0.04982164 -0.035953514 -0.050731633 -0.032762844 -0.0055745356 -0.053492546 -0.04819089
-0.015717888 -0.023048561 -0.023539184 -0.053007096 0.00397318 -0.014087301 0.013054054 -0.01600327
-0.00034820277 0.016964098 0.0051062196 0.027313057 -0.0025693052 0.0060055023 0.032185905 0.014198332
00000000: 88b0 163c 5454 4b3c 9cba a43c b281 953d
00000010: 4064 6c3d 133e ad3c 72b9 963d ad34 aa3d
00000020: 5ab0 713c a2d0 813d a26d 553d d219 033e
00000030: d7de 623e ca63 883c 4155 903c 8234 a73c
00000040: 2f4f e03b 62d4 debb 9934 09bc 845c 86ba
00000050: 4374 4bbc 8085 30b9 94f9 a8bc 5512 d5bc
00000060: c924 8fbb a945 053e 86bc beba b2e8 df3b
00000070: bb2e e1bb 66ef afbc 6dbf c9bc f12b dfbc
00000080: a1f1 aabb 69e3 febc 876f 9d3a ed2c 043c
00000090: 1eb2 08bd 1075 cebb db39 553d e0f3 03bd
000000a0: def1 8aba e158 a9bc f87a 09bb ef36 08bc
000000b0: 48d4 363c a293 a3bc eb92 a2bc bf87 1dbc
000000c0: 3df3 db3a 8338 4d3c e6f4 8bbb 4f83 ee3c
000000d0: 0ea6 ac3b 77fd 863c 0141 4b3c 81ca a83c
000000e0: cc58 4e3d 6beb 0f3c f3ad 643c 2f62 363d
000000f0: 7054 1a3d 13af bf3c da7f dd3c c880 3cbd
00000100: 9f00 d6bb af54 c0bc 5ac4 c8bb c8b1 8dbc
00000110: 47df a93c e7ac 0cb9 21f4 823c f4b4 9cbc
00000120: fd66 833c 55e8 813c 3a69 fbbc 1456 d1bb
00000130: cac9 37bc cc89 2b3d d98c c9bc 4456 b0bc
00000140: 5a33 53bb fe44 2ebd 7493 8b3c 076b 1dbd
00000150: 6786 7c3b 1374 e0bc 0545 7fbc 9875 76bc
00000160: 475b aebc b9e1 e0bc f59e 15be 7e53 48bd
00000170: dc3d c23b 6729 3abd bd40 49bd 1c30 cbbc
00000180: a36e f1bc c50d a8bc 6bec 23bd 9ec4 5538
00000190: 06cb 4abd e963 97bc 3dc9 2dbc 2537 2abd
000001a0: 1aec 28bd 5e1f 10bd 9e25 61bd 6edd 52bd
000001b0: 912a 70bd d205 77bd ef48 66bd 49e3 0fbc
000001c0: 96fd 46bd 5f66 e2bc 8a38 68bc 1b96 7bbc
000001d0: 895b 4fbd 1eef 053c a0fc 9b3c b776 113d
000001e0: a3fa 883b cfda f43c 45c1 1e3d b378 4f3d
000001f0: becb 2f3d 2d84 e33c 1509 133d 77ef 1e3d
00000200: 3e08 923d 71d5 193e 56a8 bbbc 3b0a 17bd
00000210: 0618 f3bc beb8 9dbc 1813 b6bc 2830 0dbd
00000220: 63ed d7bc 2a54 26bd 88e4 04bd b294 11bd
00000230: 73a5 7fbc 69bd 9f3c 1b5b 17bc 84d5 39bc
00000240: aeaf dc39 15f7 ccbc 2c19 f83b bf95 95bc
00000250: 8b21 8b3a 2608 03bd fa09 54bc 300e 50bb
00000260: be1c cebc bec4 babc c674 ca3c d916 4a3d
00000270: e92a 003c 48a7 583b c47a ba3c 1f03 26bb
00000280: aa58 803d 1292 913c d9d6 b23c ee08 0c3d
00000290: 654e 2b3d af29 f43c 506e 333d f876 ef3b
000002a0: fad9 943c cc44 5d3c bf0c a2bc 38e6 e93a
000002b0: 09e2 0d3c 03f3 423c 12a2 a33c ea28 f73c
000002c0: 5a79 d43b 9915 bbbb 9dfd c1bb fde0 debc
000002d0: 2b15 8abc 3430 a8bd b071 80bc e388 edbb
000002e0: 7c40 fabc 86ef 51bd 3094 37bd 3a90 01bd
000002f0: fdf4 aabc 2d28 01bd 9632 0fbd 20f8 63bb
00000300: 3b97 2bbb 1cae a93c e5df 173e a789 a13b
00000310: 74bb 303c 8057 f4bc 19c0 ecbb 494e 90bb
00000320: 17c9 2b3c 4f35 a63c 2176 36bc 7ea0 b2bc
00000330: 1abc 963c 9318 0a3d 657e 493d 21f1 96bc
00000340: cde1 9b3c 833d 6abb 767e 9e3c 60e1 dcbc
00000350: 009e 643c c27c 833b 08d2 5fbc 1deb 063d
00000360: 32f3 90bc 4996 d83c 01b5 9b3b b74a e1bc
00000370: 70bb 16bc 5a69 753a 0070 883c 22e8 7e3c
00000380: ff40 a6bc 6252 733c df93 49bc 5140 32bc
00000390: d38c 0bbc 1407 1d3c c312 0dbd a995 1ebc
000003a0: e004 2a3d c711 4cbd fe43 13bd f9cb 4fbd
000003b0: 5532 06bd 98aa b6bb 001b 5bbd d063 45bd
000003c0: cdc2 80bc 56d0 bcbc 3fd5 c0bc f81d 59bd
000003d0: 7331 823b 6cce 66bc ace0 553c 4a19 83bc
000003e0: fc8e b6b9 4bf8 8a3c 1352 a73b a2bf df3c
000003f0: ca61 28bb cec9 c43b 5ed5 033d 1fa0 683c

proxy.blocks.1.conv1.bias f4 [64]
-0.040526293 -0.022913476 -0.044047464 -0.08929054 -0.034746002 -0.05268696 -0.079422794 0.044633638
0.029727552 -0.016534086 0.044530235 0.049592666 0.027169233 0.015071531 0.036152985 0.024618005
-0.029412134 0.041766357 0.0024084249 -0.053570636 0.04033566 -0.03970923 0.030064031 -0.03697486
-0.05760064 0.0052983407 -0.003477237 0.009183741 -0.018660543 0.055586517 0.026046712 0.0043374333
-0.02271129 0.013652272 -0.014088438 0.02232054 -0.22961226 0.012524849 -0.00978936 -0.05086483
0.022893462 0.010393989 0.0061307955 0.010123795 -0.013182261 -0.021083955 0.011883474 -0.07162823
0.034081474 0.018298293 -0.022181027 0.016321447 0.045576006 0.026930083 0.16833742 -0.09440834
-0.014733086 0.064374834 0.05105976 0.03046306 -0.12175854 0.01018622 0.0345637 -0.048089746
00000000: e6fe 25bd 0bb5 bbbc 1d6b 34bd f5dd b6bd
00000010: d351 0ebd 48ce 57bd 6ba8 a2bd c3d1 363d
00000020: 3287 f33c 7e72 87bc 5665 363d ae21 4b3d
00000030: 0392 de3c 95ee 763c 2715 143d b3ab c93c
00000040: b7f1 f0bc 3313 2b3d aad6 1d3b e26c 5bbd
00000050: 0137 253d 25a6 22bd d848 f63c f372 17bd
00000060: a6ee 6bbd b49d ad3b 5be2 63bb 6777 163c
00000070: ffdd 98bc b0ae 633d ea5f d53c 0721 8e3b
00000080: 070d babc c7ad 5f3c 31d3 66bc 91d9 b63c
00000090: 7a1f 6bbe 0635 4d3c 8d63 20bc a457 50bd
000000a0: 128b bb3c 8d4b 2a3c d7e4 c83b 46de 253c
000000b0: 69fa 57bc 42b8 acbc e7b2 423c d2b1 92bd
000000c0: 0499 0b3d 4de6 953c fcb4 b5bc 8eb4 853c
000000d0: e8ad 3a3d 7a9c dc3c a560 2c3e 2959 c1bd
000000e0: 0b63 71bc f4d6 833d 0a24 513d ab8d f93c
000000f0: 8b5c f9bd 1ae4 263c ab92 0d3d c1f9 44bd

proxy.blocks.1.film.bn.running_mean f4 [64]
3.4207594 -0.3585381 -3.276084 -4.0730753 3.167258 -9.477468 -2.3818192 -1.5352037
1.6761312 -4.8177977 -2.2762742 -1.7235376 -3.0867739 -0.19273618 0.11305661 0.7274207
-2.7105708 -0.7212045 2.6542137 4.141088 -4.7282667 -2.6432168 1.0775625 -2.6812823
-3.2113004 -3.935761 -2.8587735 2.0117362 1.3882774 -1.3921059 6.7328715 -6.1577606
-0.26710734 0.6456096 -1.9047704 6.1262116 -4.619718 3.596235 -2.0302908 -1.7882203
-0.38834172 -1.3746933 1.4214779 2.2395852 3.4051192 -0.35183296 3.632709 4.329698
7.0439286 -0.82598794 -1.3718858 -0.5992116 2.976239 5.009779 0.91174465 -2.005144
-4.0798593 3.935273 -4.0527883 1.3226024 -0.16780493 0.07954142 1.5586843 -2.3794324
00000000: b9ed 5a40 4e92 b7be 5cab 51c0 a256 82c0
00000010: 5bb4 4a40 b5a3 17c1 ba6f 18c0 8e81 c4bf
00000020: 788b d63f 662b 9ac0 7aae 11c0 e19c dcbf
00000030: b48d 45c0 a25c 45be 398a e73d 3e38 3a3f
00000040: fe79 2dc0 dca0 38bf a3de 2940 cb83 8440
00000050: f64d 97c0 772a 29c0 91ed 893f 219a 2bc0
00000060: f285 4dc0 82e3 7bc0 25f6 36c0 49c0 0040
00000070: 13b3 b13f 8730 b2bf af73 d740 600c c5c0
00000080: 4bc2 88be ac46 253f 84cf f3bf ed09 c440
00000090: bbd4 93c0 b728 6640 49f0 01c0 67e4 e4bf
000000a0: bad4 c6be f3f5 afbf fdf2 b53f 5d55 0f40
000000b0: 79ed 5940 7323 b4be 4e7e 6840 e38c 8a40
000000c0: dd67 e140 f273 53bf f499 afbf ee65 19bf
000000d0: b37a 3e40 1c50 a040 1968 693f 4754 00c0
000000e0: 358e 82c0 83db 7b40 71b0 81c0 094b a93f
000000f0: 0ed5 2bbe 9de6 a23d f882 c73f 9f48 18c0

proxy.blocks.1.film.bn.running_var f4 [64]
0.3288418 1.5557077 0.78754616 1.926672 3.0317662 2.2480845 0.48560908 1.9394711
2.0056472 3.7821126 3.2714248 0.7110523 0.62386554 0.8969628 0.059816938 0.42760584
0.5214191 0.17776778 0.82905525 3.0179255 1.2855854 0.46524662 0.6587311 0.8880811
0.48429874 0.83612424 0.17602527 2.8217726 2.004145 0.34830916 2.6483402 2.4127321
0.39331523 0.7898419 1.0001379 3.3450794 0.4118219 3.226313 0.6306532 0.37537807
0.4862971 0.47430465 0.09339553 1.1682528 3.0750895 2.2571182 0.698424 4.316121
1.7511735 0.1842084 0.92935926 0.68360674 0.4202172 1.1304437 0.5104958 0.6272991
1.6288884 3.721529 1.3793813 0.5056293 0.48055267 0.22865857 0.43954697 0.38688037
00000000: f45d a83e 6e21 c73f a09c 493f 309d f63f
00000010: 7508 4240 9ee0 0f40 c1a1 f83e 9740 f83f
00000020: 865c 0040 220e 7240 065f 5140 8607 363f
00000030: a7b5 1f3f 5b9f 653f 9b02 753d 27ef da3e
00000040: b97b 053f c208 363e f73c 543f b125 4140
00000050: 108e a43f ce34 ee3e 9aa2 283f 4859 633f
00000060: 01f6 f73e 3d0c 563f f83f 343e ec97 3440
00000070: e943 0040 9455 b23e 687e 2940 346a 1a40
00000080: 9d60 c93e 1433 4a3f 8504 803f c815 5640
00000090: 52da d23e ea7b 4e40 7d72 213f 8e31 c03e
000000a0: effb f83e 0fd8 f23e 2846 bf3d 4f89 953f
000000b0: 44ce 4440 a074 1040 eacb 323f aa1d 8a40
000000c0: 7426 e03f 20a1 3c3e 7dea 6d3f da00 2f3f
000000d0: b526 d73e 61b2 903f daaf 023f ac96 203f
000000e0: 6a7f d03f 882d 6e40 918f b03f ec70 013f
000000f0: 000b f63e 7925 6a3e 4d0c e13e 2f15 c63e

proxy.blocks.1.film.adaptor.weight f4 [128, 6]
0.3651614 -0.24476849 -0.117079005 0.04727097 0.07157488 0.15675855 0.18128 -0.2616415
0.24533859 -0.16723005 -0.24722031 -0.10920109 0.04988813 0.3440443 0.1184405 -0.30588087
-0.42042166 0.13951223 0.21727215 0.14666021 0.040393084 -0.017479533 0.16297926 0.13483848
0.3330242 -0.06096112 -0.06542411 -0.019977612 0.30507603 -0.13757963 0.331238 0.21550433
0.016519982 -0.30145925 0.3338853 -0.067952506 0.2990478 -0.18887457 -0.15746102 -0.083199814
-0.054717746 -0.008710685 0.26675868 -0.00392889 0.04270098 0.012809296 -0.3768531 0.03887502
0.19272368 -0.29445797 0.2249334 0.048647657 -0.32280636 0.1398695 -0.0381595 0.30473253
0.2472647 0.12195782 0.05271755 0.14529686 -0.17710438 0.24128506 0.05743333 -0.24628642
0.3500159 -0.058202893 0.32661715 0.2690944 -0.18238576 0.24194717 -0.113709904 -0.017712552
0.45592508 -0.056547284 0.18706882 -0.2983538 0.1968242 -0.4788755 0.14607914 0.14856307
0.20142794 0.18640351 0.043638945 -0.25567994 -0.6451597 -0.2394659 -0.05406772 0.020824436
-0.07155658 0.05333082 0.28535604 -0.00740312 -0.091107935 -0.08447575 0.037991855 -0.38802308
0.17396584 -0.008721072 -0.028175782 -0.17050473 0.18126944 -0.1566694 0.47536466 -7.576045e-05
-0.22270526 -0.05805571 0.072566666 -0.0130136665 -0.55921346 0.13841362 0.112691216 0.016668031
0.02326241 -0.109743215 0.36013848 -0.25999752 0.14599213 -0.35373175 -0.043735977 -0.15766436
0.7327783 -0.064175256 0.19089423 -0.0751384 -0.11195013 -0.2734486 -0.025038082 -0.05090115
0.11212082 -0.033946402 0.029353812 -0.15400241 0.008315866 -0.2854553 -0.114556916 0.2612429
0.086601585 0.25145352 0.064456195 -0.18482892 0.23039648 -0.19702959 -0.12543853 -0.3864881
0.48806038 -0.25812104 0.18722479 -0.08183392 -0.047119096 0.15104066 0.41036415 -0.1170497
-0.018523823 -0.23329403 -0.05824082 -0.2570107 0.600612 -0.15413497 0.20429261 -0.13919377
0.17435512 0.3250546 -0.004868962 0.100410044 -0.2549748 -0.02400372 0.13958493 0.19429748
-0.20063731 0.12918654 -0.081111 -0.09509559 0.14469999 0.3099176 -0.11317072 0.009592377
-0.06318506 -0.0014567923 -0.07479762 0.35713005 0.048000716 -0.056539394 0.23648569 -0.38651413
0.16656724 -0.33399597 -0.30396178 0.26614475 -0.0390996 0.06518372 -0.3255327 -0.21705431
0.42045885 -0.12049465 0.013083258 0.05364347 -0.012628164 -0.073579505 0.0125167975 0.006678355
-0.15763775 -0.056522813 -0.31821635 -0.20076111 0.5077855 0.04988965 0.033429842 0.015110975
0.10858939 -0.19330755 -0.3298455 0.20152582 -0.0889372 -0.1753901 0.16192372 0.057956174
0.106560074 -0.115740374 0.050041042 -0.2989337 -0.07179989 0.25228894 0.20343047 0.057906438
0.18869023 0.26488647 -0.21893269 0.24679314 0.4445589 0.20332098 0.055493377 -0.16701168
-0.058620237 0.0954553 0.57374054 -0.08187475 0.12157974 0.07022437 0.12871332 -0.3813327
-0.18632492 -0.069988675 -0.16709629 -0.22444403 0.18954192 0.12334835 0.32780394 -0.4141257
-0.2909611 0.23806363 0.13002683 0.20066033 -0.019437937 -0.6409428 0.059146516 0.121714376
00000000: 6ff6 ba3e 97a4 7abe 1ec7 efbd 349f 413d
00000010: da95 923d 5085 203e 77a1 393e e0f5 85be
00000020: 0a3a 7b3e 5b3e 2bbe 5227 7dbe d2a4 dfbd
00000030: 7f57 4c3d 9326 b03e ef90 f23d 6b9c 9cbe
00000040: 8241 d7be 4bdc 0e3e 977c 5e3e 182e 163e
00000050: 3873 253d 3d31 8fbc 09e4 263e 1913 0a3e
00000060: 2682 aa3e 5eb2 79bd 13fd 85bd 17a8 a3bc
00000070: ed32 9c3e ade1 0cbe 0798 a93e 2bad 5c3e
00000080: ea54 873c de58 9abe 04f3 aa3e af2a 8bbd
00000090: cb1c 993e 5668 41be 763d 21be aa64 aabd
000000a0: b71f 60bd 43b7 0ebc 9894 883e ebbd 80bb
000000b0: 39e7 2e3d 15de 513c e4f2 c0be 6a3b 1f3d
000000c0: 5b59 453e 32c3 96be f154 663e c442 473d
000000d0: e046 a5be f339 0f3e 234d 1cbd e705 9c3e
000000e0: f532 7d3e 06c5 f93d 5cee 573d b3c8 143e
000000f0: da5a 35be 6e13 773e 363f 6b3d 8232 7cbe
00000100: 4935 b33e 2866 6ebd 5d3a a73e bec6 893e
00000110: 55c3 3abe 00c1 773e bde0 e8bd ea19 91bc
00000120: 036f e93e 209e 67bd f88e 3f3e d4c1 98be
00000130: 488c 493e 2b2f f5be c595 153e eb20 183e
00000140: 2043 4e3e 90e0 3e3e c0be 323d 7be8 82be
00000150: 3029 25bf 8d36 75be 1d76 5dbd 0298 aa3c
00000160: 428c 92bd 6b71 5a3d 301a 923e df95 f2bb
00000170: cc96 babd 9f01 adbd 599d 1b3d f6aa c6be
00000180: 1a24 323e d4e2 0ebc e6d0 e6bc cb98 2ebe
00000190: b29e 393e f16d 20be ff62 f33e 95e1 9eb8
000001a0: d90c 64be d3cb 6dbd d59d 943d 4637 55bc
000001b0: 9d28 0fbf 4dbc 0d3e a7ca e63d 658b 883c
000001c0: cf90 be3c 0dc1 e0bd 1264 b83e 651e 85be
000001d0: f67e 153e 541c b5be 7f24 33bd c472 21be
000001e0: 5c97 3b3f 516e 83bd c779 433e 29e2 99bd
000001f0: 1c46 e5bd 7401 8cbe aa1c cdbc b97d 50bd
00000200: 9a9f e53d 620b 0bbd 6877 f03c cfb2 1dbe
00000210: 453f 083c 3227 92be d19c eabd a1c1 853e
00000220: 2c5c b13d 84be 803e 9c01 843d cb43 3dbe
00000230: 0eed 6b3e 20c2 49be f572 00be c5e1 c5be
00000240: 0de3 f93e 7128 84be dbb7 3f3e 8b98 a7bd
00000250: f4ff 40bd 67aa 1a3e 401b d23e c1b7 efbd
00000260: 46bf 97bc a1e4 6ebe ed8d 6ebd e896 83be
00000270: b5c1 193f 8fd5 1dbe 1532 513e d088 0ebe
00000280: 268a 323e 8e6d a63e d08b 9fbb c8a3 cd3d
00000290: 0f8c 82be 73a3 c4bc 5aef 0e3e ebf5 463e
000002a0: de73 4dbe 7a49 043e 861d a6bd 7ac1 c2bd
000002b0: 3c2c 143e 85ad 9e3e 0dc6 e7bd 5829 1d3c
000002c0: 2b67 81bd d7f1 beba 7f2f 99bd c0d9 b63e
000002d0: 669c 443d da95 67bd 4e29 723e 2ee5 c5be
000002e0: 9a90 2a3e 8501 abbe e1a0 9bbe 2044 883e
000002f0: e726 20bd 0b7f 853d 39ac a6be 7c43 5ebe
00000300: 6246 d73e e6c5 f6bd 295b 563c 41b9 5b3d
00000310: 5ce6 4ebc dab0 96bd 4113 4d3c 1ad6 da3b
00000320: ca6b 21be 7784 67bd 41ed a2be 5294 4dbe
00000330: 3bfe 013f 1759 4c3d bbed 083d 0694 773c
00000340: 1d64 de3d 6af2 45be 82e1 a8be c95c 4e3e
00000350: b524 b6bd 7699 33be 55cf 253e 7463 6d3d
00000360: 2b3c da3d 4a09 edbd d6f7 4c3d d70d 99be
00000370: d20b 93bd 042c 813e 1450 503e 4d2f 6d3d
00000380: 0338 413e 339f 873e e42f 60be 57b7 7c3e
00000390: 399d e33e 6033 503e 064d 633d 1c05 2bbe
000003a0: c61b 70bd 117e c33d a9e0 123f f3ad a7bd
000003b0: ccfe f83d cbd1 8f3d 6dcd 033e 0a3e c3be
000003c0: f6cb 3ebe 3956 8fbd 4a1b 2bbe a8d4 65be
000003d0: 4717 423e 0f9e fc3d ebd5 a73e 4908 d4be
000003e0: daf8 94be f4c6 733e c125 053e e779 4d3e
000003f0: 4f3c 9fbc d414 24bf 9e43 723d 6345 f93d

proxy.blocks.1.film.adaptor.bias f4 [128]
0.0695036 0.3821782 0.22387835 0.1664079 -0.18244147 -0.17286934 0.063613474 0.2691724
0.21852106 0.24169765 0.4098126 0.031515844 0.15017891 -0.09117198 0.18807152 0.28012738
0.2994563 -0.2532024 0.073667295 0.39967906 -0.18481712 -0.28885725 0.17176393 -0.050988775
0.05687314 0.24632455 -0.025621064 0.09152034 0.07223451 0.27126384 0.26730093 0.0015046801
-0.2747264 -0.25625142 -0.2283489 -0.23958266 0.31899172 0.2934899 -0.11124445 -0.38913277
0.36872503 -0.037336975 0.10665139 0.037626572 0.15607527 -0.07217651 -0.028718581 -0.3503316
-0.12218004 0.35484332 0.08619211 -0.07878274 -0.004952059 0.13717179 -0.19227257 -0.331231
-0.0523378 0.031296767 -0.09215997 0.0545436 0.2691186 0.18026401 -0.3736581 0.0943659
0.08600517 -0.25136632 -0.3972392 -0.03294163 -0.044560146 0.31155616 0.38890252 0.31373033
-0.120293155 0.3328635 0.023414953 0.10260066 -0.1681662 0.11495473 -0.6752991 0.2979561
0.44495282 -0.008997059 0.37969875 0.17918731 0.1619698 -0.26253623 -0.094007276 -0.09205755
0.031416617 -0.055731215 -0.058772337 0.24273077 0.12456053 -0.7231129 0.240672 0.11720322
0.1507246 -0.11580247 -0.06815238 -0.02804078 0.23120269 -0.37983966 -0.18651925 0.23353142
0.24641132 -0.26097932 -0.6160315 -0.042194713 0.18499959 0.26635063 -0.51076937 0.41039562
0.020002522 -0.92200786 -0.14177066 0.16271047 -0.260416 -0.36001664 -0.1953874 0.25950834
-0.1666415 -0.24216233 0.08165961 0.084069625 0.40662992 0.33191794 -0.36811355 0.19179219
00000000: e757 8e3d dcac c33e 5e40 653e d566 2a3e
00000010: f0d1 3abe a904 31be c847 823d f7d0 893e
00000020: fcc3 5f3e 977f 773e f5d2 d13e c216 013d
00000030: 80c8 193e 60b8 babd d295 403e db6c 8f3e
00000040: 5652 993e bfa3 81be e1de 963d bca2 cc3e
00000050: b340 3dbe 19e5 93be e2e2 2f3e 9bd9 50bd
00000060: cff3 683d 813c 7c3e 44e3 d1bc 046f bb3d
00000070: b0ef 933d 18e3 8a3e abdb 883e b038 c53a
00000080: f0a8 8cbe 6333 83be 4bd4 69be 2855 75be
00000090: e252 a33e 4f44 963e 21d4 e3bd 693c c7be
000000a0: 87c9 bc3e a8ee 18bd 0b6c da3d 521e 1a3d
000000b0: 32d2 1f3e 47d1 93bd 3b43 ebbc aa5e b3be
000000c0: 8739 fabd 06ae b53e 7d85 b03d d858 a1bd
000000d0: e244 a2bb c376 0c3e 1ae3 44be 1c97 a9be
000000e0: 2960 56bd 0a31 003d 5ebe bcbd 1c69 5f3d
000000f0: eac9 893e 2197 383e 1d50 bfbe e942 c13d
00000100: 7b23 b03d 16b3 80be f062 cbbe cded 06bd
00000110: b384 36bd 4a84 9f3e 3b1e c73e 43a1 a03e
00000120: 425c f6bd 166d aa3e b7d0 bf3c 4b20 d23d
00000130: c333 2cbe 636d eb3d 67e0 2cbf b48d 983e
00000140: dbd0 e33e 6768 13bc e067 c23e e17c 373e
00000150: 69db 253e 266b 86be e386 c0bd ab88 bcbd
00000160: b6ae 003d 6a46 64bd 43bb 70bd 6a8e 783e
00000170: 9719 ff3d ed1d 39bf b972 763e 3e08 f03d
00000180: 8d57 1a3e d829 edbd 7a93 8bbd c7b5 e5bc
00000190: 66c0 6c3e 587a c2be e7fe 3ebe dc22 6f3e
000001a0: 4053 7c3e 159f 85be 3eb4 1dbf 5dd4 2cbd
000001b0: 8870 3d3e 1c5f 883e c8c1 02bf 601f d23e
000001c0: 54dc a33c b508 6cbf 542c 11be 939d 263e
000001d0: 3f55 85be 1a54 b8be a213 48be 47de 843e
000001e0: 12a4 2abe 67f9 77be 273d a73d b22c ac3d
000001f0: cc31 d03e 26f1 a93e 6179 bcbe 2c65 443e

proxy.blocks.1.relu.weight f4 [64]
0.38803563 0.22555737 0.290282 0.45423725 0.3000584 0.09294999 0.3411 0.2716857
0.25077996 0.27023026 0.21222317 0.28895524 0.26279747 0.37097383 0.6996992 0.112743385
0.17516619 0.41302323 0.31437975 0.29851308 -0.012647375 0.4056438 0.3781848 0.014492554
0.29066676 0.25433633 -0.010396233 0.37625358 0.23854363 0.56291705 0.28989568 0.42084962
-0.014557814 0.28454742 0.44711882 0.30101678 0.90974236 0.26431185 0.2972487 -0.10482216
0.49425268 0.2681381 0.47812876 0.23103817 0.24709247 0.26298255 0.21895236 0.27027366
0.13576165 0.35664552 0.26552233 0.15456899 0.27600774 0.21416716 -0.0024865635 0.6637272
0.19477639 0.2835192 0.61650753 0.11864282 0.8266604 -0.012382813 0.3120517 0.4518089
00000000: 9bac c63e 83f8 663e d89f 943e c991 e83e
00000010: 41a1 993e 905c be3d a9a4 ae3e 631a 8b3e
00000020: 3b66 803e 9f5b 8a3e 0851 593e f1f1 933e
00000030: 648d 863e 48f0 bd3e 7d1f 333f 01e6 e63d
00000040: c45e 333e c877 d33e 62f6 a03e b5d6 983e
00000050: f036 4fbc 8bb0 cf3e 70a1 c13e 2d72 6d3c
00000060: 46d2 943e 5f38 823e f654 2abc 4fa4 c03e
00000070: c844 743e 551b 103f 356d 943e 9a79 d73e
00000080: e683 6ebc 33b0 913e c2ec e43e df1e 9a3e
00000090: e0e4 683f e253 873e fb30 983e 00ad d6bd
000000a0: b00e fd3e 6649 893e 4bcd f43e 4595 6c3e
000000b0: cf05 7d3e a6a5 863e 0c35 603e 4f61 8a3e
000000c0: 1a05 0b3e 3e9a b63e 8bf2 873e 5547 1e3e
000000d0: e350 8d3e a34e 5b3e 9df5 22bb 07ea 293f
000000e0: 7673 473e 6e29 913e 70d3 1d3f 02fb f23d
000000f0: 04a0 533f 48e1 4abc 3ec5 9f3e 7f53 e73e

proxy.blocks.1.res.weight f4 [64, 1, 1]
0.88202894 -0.16658682 0.06151111 -0.90417683 0.06457299 -0.0035037193 0.22355208 0.4875475
-0.7925677 0.0794748 -0.17478934 -0.6540797 -0.67191815 0.42508894 0.17379007 0.71787417
0.77603656 0.081095606 -0.22963001 0.59402686 0.69120467 -0.05646942 0.28466842 -0.009170857
0.5386917 -0.15186304 0.10125183 0.7554713 -0.84765786 0.046791498 -0.0014801312 -0.74403834
0.052105155 -0.23980089 -0.0022604163 0.1400002 -0.17719372 0.029635714 -0.018090695 -0.11181572
-0.5738441 0.5209477 -0.0032170662 0.00065835076 -0.0020885235 -0.12711313 0.057606116 0.31307214
-0.0037957444 0.14879462 -0.60388887 -0.02498045 -0.63008714 -0.5330573 0.5234112 0.55692184
0.25596347 0.38045666 0.01015872 -0.5488922 0.29009652 -0.84105074 0.62103266 -0.0051345974
00000000: a6cc 613f bc95 2abe 13f3 7b3d 2278 67bf
00000010: d83e 843d a89e 65bb d6ea 643e d39f f93e
00000020: b7e5 4abf afc3 a23d fafb 32be c471 27bf
00000030: d402 2cbf 42a5 d93e 06f6 313e 9ac6 373f
00000040: 55aa 463f 7415 a63d 2124 6bbe 2512 183f
00000050: caf2 303f 7b4c 67bd 0fc0 913e 5d41 16bc
00000060: b3e7 093f fc81 1bbe 1f5d cf3d 9166 413f
00000070: 1b00 59bf 71a8 3f3d f600 c2ba 4c79 3ebf
00000080: 376c 553d 5d8e 75be 7e23 14bb 365c 0f3e
00000090: 4572 35be 99c6 f23c f032 94bc a4ff e4bd
000000a0: 72e7 12bf d45c 053f 6ad5 52bb 2c95 2c3a
000000b0: 9cdf 08bb f229 02be 64f4 6b3d fe4a a03e
000000c0: 06c2 78bb 9e5d 183e 7698 1abf cda3 ccbc
000000d0: 644d 21bf 7176 08bf 47fe 053f 6e92 0e3f
000000e0: a50d 833e 37cb c23e c370 263c 3384 0cbf
000000f0: 8887 943e 1a4f 57bf fffb 1e3f 2040 a8bb
